Code/PC/03.Retrain the model/computer_vision_driver_v2.tflite (tflite, 126296 bytes, 10 tensors)

sequential/conv2d/BiasAdd/ReadVariableOp f4 [16]
00000000: 095a 293c ae6e 65bd 6b63 95bd 1b69 613d
00000010: 8ada 29bd 4a58 3abd 8cce 803d 3d20 5cbb
00000020: dc03 7abc 89af fa3c 01ff f2bc e3a1 0ebd
00000030: 5453 65bd 201b b83d 4f7a 7dbc a284 923c
0.010336407 -0.056013756 -0.07294353 0.055031877 -0.04146818 -0.045494355 0.06289396 -0.0033588551
-0.015259709 0.03060128 -0.029662611 -0.034822356 -0.05598767 0.08989549 -0.015471055 0.01788551

sequential/conv2d_1/BiasAdd/ReadVariableOp f4 [32]
00000000: aaf1 56bc 9136 7a3c 5dd8 c53c 909b 443b
00000010: 5e75 713d f3a8 9dbc 6362 043d 4df5 a73d
00000020: 9091 bdbc 727c 8c3c 7e77 adbb 726a ee3b
00000030: f0c4 053d 28e3 3d3a 5047 3f3b 71d8 d93b
00000040: 0b0d 26bd 681d 613b a950 813c 7445 17bc
00000050: 33dc 073d 7289 55bc 40c4 95bc 1147 e13b
00000060: 2d01 27bc e22e 8b3c 1e11 333c 52d6 80bc
00000070: dad2 5c3c 64bc c3bb 3946 f539 3b02 8b3c
-0.013119141 0.015271799 0.024151022 0.002999995 0.05894982 -0.0192456 0.03232039 0.08201084
-0.023140699 0.017149184 -0.0052937856 0.007275873 0.032658517 0.0007243627 0.0029186793 0.0066481163
-0.040539782 0.0034349803 0.015785532 -0.0092328675 0.033168983 -0.013033258 -0.018282056 0.006874927
-0.010193151 0.016990129 0.010929374 -0.015727196 0.013478005 -0.0059733856 0.00046782361 0.016968837

sequential/conv2d_2/BiasAdd/ReadVariableOp f4 [16]
00000000: 629c 1bbc cac1 26bd 6b2c bc3b 2c68 c43c
00000010: c2e9 d13d 7737 af3c 7b30 c9bb 0000 0000
00000020: ec1b c8bc fd4f 40bc 06ca fabc 6e9d 01bc
00000030: 2a15 e73c e000 85bb bffc aa3b a771 2bbc
-0.009497734 -0.040712155 0.0057425997 0.023975454 0.10249664 0.021388752 -0.0061398125 0.0
-0.024427377 -0.011737821 -0.03061391 -0.007911069 0.028208334 -0.004058942 0.005218118 -0.010464109

sequential/conv2d/Conv2D f4 [16, 3, 3, 1]
00000000: 24ab 18be 6eee c8bd cdfc a63c 3009 e2bd
00000010: f9dc 393e c833 333e 9774 6abe b59c 093c
00000020: e2ed 153e 11d1 09bd 6952 403e eec2 553e
00000030: 2109 b0bd 693c d9bd 9018 043e c5db a93d
00000040: c1c9 393b f5bf 163c 25f5 903d a1e8 cf3d
00000050: ba8d 4a3d c82b 93bd 5f62 763e a17a 373d
00000060: d3f1 183e 31cb d2bd 9e20 2dbb dee2 75bd
00000070: 6ba1 573e 7799 e1bc 57c9 9d3d 9a20 0d3d
00000080: d311 43bd 4bca 09be 6c00 a2bc aadf 05be
00000090: 9417 3a3e 782e fb3b a719 c53d 99e3 01be
000000a0: 32f2 2abd 217a 263e 74a4 893c 6539 333c
000000b0: 4e4b 453e 0bbf 3e3e 5c35 13be dd0d 4c3e
000000c0: c7e7 5c3e 3209 ad3d 005c 533e ee47 3c3e
000000d0: acd3 b73d f884 663e bdec 4b3d 69ef 803d
000000e0: 9361 15be 658a cdbc cca0 b03c 95a3 3bbe
000000f0: 7f13 bb3d 14cc 353e d781 f8bd 56a7 83bd
00000100: 2a97 ddbb db09 473d 76a2 f53d b1a9 903d
00000110: a7ef 253d ae05 4f3d e5bd 4e3e 4b38 993d
00000120: 19bc a23c 7060 f53d 1bcf f0bd 3289 433e
00000130: b813 383e 2661 4a3e 3712 a7bc 1ab6 e9bd
00000140: 14b3 6f3c 1eb5 aa3d 3d57 763e 72d1 0cbe
00000150: 874e 1abe 3f3a 1d3e 28c7 2cbc a239 64be
00000160: 155f 2ebe 96ae 0d3e a1e2 783d 612f a23d
00000170: 60d3 3c3e f93a a93b 6862 0e3e 3738 2f3e
00000180: ca29 253d a969 9b3d 846e 1fbb 6d12 9a3d
00000190: df0f 9a3d a9b6 863d d785 d4bd a769 0c3e
000001a0: efa6 e03d 0bd3 1bbe 18fc 86bd 1ea5 693b
000001b0: 95f7 9ebd 3144 9b3d ed70 1a3e eb89 b5bc
000001c0: 9061 06be 1098 fd3d fca9 0a3d 6866 b43c
000001d0: 3117 7b3b 4c6b f93d e071 fbbd c2e4 643d
000001e0: fcc9 503d 971f ddbd 0d7e ef3d feaa 11be
000001f0: 97b0 49bd 2459 b9bd 70cf dabc f374 2f3e
00000200: b979 d93d a138 d03d 46f1 4ebd a72a 5aba
00000210: 9c25 2a3e b5d5 d43c f8c2 813c d87f 193e
00000220: 7d87 35be 5fd4 023d 1ae5 223e 03a0 3b3e
00000230: b3e5 c4ba 82e1 55be 4955 09bd 5599 f0bd
-0.14909035 -0.09811102 0.020384217 -0.110369086 0.181507 0.17500222 -0.22896038 0.008399178
0.14641526 -0.033646647 0.18781437 0.20875141 -0.08595491 -0.106072254 0.12899995 0.08293871
0.0028349014 0.00920104 0.070780076 0.10151792 0.049451567 -0.07186085 0.24060963 0.044794682
0.14935999 -0.10292662 -0.0026417146 -0.06003081 0.2105767 -0.027538998 0.07704418 0.03445492
-0.04762442 -0.13456075 -0.019775592 -0.13073602 0.18173057 0.0076654516 0.096240334 -0.12684478
-0.04173488 0.16257526 0.01680205 0.010938977 0.19267008 0.18627565 -0.14375824 0.19927163
0.21572791 0.084490195 0.20640564 0.18386814 0.0897592 0.22511661 0.049786318 0.06295664
-0.14588003 -0.025090406 0.021561049 -0.1832412 0.09134578 0.17753631 -0.1213414 -0.06428401
-0.006762405 0.048593383 0.119938776 0.07063616 0.040511753 0.050542526 0.20189627 0.0748144
0.019865083 0.119812846 -0.11758252 0.19095305 0.17976272 0.19763622 -0.020394428 -0.11411686
0.014630098 0.083353266 0.24056716 -0.13751772 -0.15069018 0.1535425 -0.010545529 -0.2228761
-0.17028458 0.1383613 0.060763005 0.07919193 0.18440008 0.005164501 0.13904727 0.17111288
0.040323056 0.075885125 -0.0024327347 0.07523046 0.075225584 0.065778084 -0.103770904 0.13712178
0.1096934 -0.15217225 -0.06591052 0.0035651396 -0.07762066 0.07581366 0.1508214 -0.022160491
-0.13123155 0.12382519 0.033853516 0.022021487 0.0038313384 0.121786684 -0.12277579 0.055882223
0.050973877 -0.10797041 0.11693964 -0.14225385 -0.049240675 -0.09050205 -0.026710242 0.17134456
0.1061892 0.10167051 -0.050523065 -0.0008322396 0.1661591 0.02598081 0.015840039 0.14990175
-0.17727466 0.031940814 0.15907708 0.18322758 -0.0015022069 -0.20886806 -0.0335286 -0.11747996

sequential/conv2d_1/Conv2D f4 [32, 3, 3, 16]
00000000: 4696 243d 950d d3bc 185d cebd 8216 ecbd
00000010: f927 a73d 5816 9b3d fb77 2cbd 6553 8dbc
00000020: 1e17 4c3c 0742 babd cb29 0ebc ce9f a0bc
00000030: 0d5b b53d 0872 c7bd e664 403d 0e7e 90bc
00000040: b20a 933d b1fb 15bc 1710 22bd 6977 f43c
00000050: be8e 18bd 30d0 053d 7a74 1dbd c5a4 9a3d
00000060: 249a 19bd 3b4f 853d c8cb 063c e646 9fbd
00000070: c7f5 ba3d 8cb4 87bd 2b35 97bd c482 9fbd
00000080: 34c6 f2bd adb4 8a3a 6542 b73d aea0 96bd
00000090: 4133 8c3d 823c 3d3d 6040 49bc e74b 34bd
000000a0: 3862 3d3c 3042 e6bd 6541 8abd 1a6b adbd
000000b0: 3b6a d03c bda9 bbbd aedf 24bd df43 afbd
000000c0: a0f4 1dbd a0f6 03be a42b bdbd 6627 7e3d
000000d0: 3d96 e2bd 77a1 20bc 6385 70bd 03a6 073d
000000e0: daf4 b43d 5855 9fbc bc92 af3d 67eb 8ebd
000000f0: c531 8e3c ba36 2b3d ec15 91bd dde9 0f3d
00000100: f551 c13d 3406 cebd c47b 0fbd 0594 babd
00000110: eade febc 8ded 63bc a8f7 9abd 75d0 0cbd
00000120: 407a d93a 0f3c 723d e1c0 5abd 2499 bcbd
00000130: 67bf 47bc 0ae4 50bd 40b7 40bb fcff 2a3d
00000140: 6cfb 5dbd 90c0 8bbd e84b 8c3c 4014 0bbd
00000150: 7c9c 4f3d d9aa c4bd e87a 07bd b446 7fbd
00000160: 8d0e ddbd 4009 10bd cc1e cabd bc73 d6bd
00000170: aa3f dbbd 13aa a1bd 20a0 52bd db18 0dbd
00000180: 25a1 6ebd eefa c43c cbff c53d 83a0 ea3c
00000190: bfb0 9cbd 2869 d8bd fafc 1f3d 8e75 77bd
000001a0: 619e 5c3d 9719 ce3d 8992 7b3d 8ade 883d
000001b0: 6020 ba3d a48f d33d daac d1bd 8caa 2c3d
000001c0: 41d5 94bd 68f6 52bd 4f2b 3dbd 7a17 d53d
000001d0: c4d2 623d 8601 c43c baa0 adbd 440c 95bd
000001e0: e6ce 6abc 728d 09bd de46 a6bd d2a3 d5bd
000001f0: f3f0 193d 912b db3d f687 193c cf21 643d
00000200: 9bcb dabd 84dd d43d c6a4 60bd b428 5f3d
00000210: 4585 b63c 95f8 c73d 72fa 98bc 3e4f bcbd
00000220: 9e93 9bbd 13dc cabb bc10 a23c c3ab 7d3d
00000230: 6758 0b3d 0262 9fbd 1318 94bd a504 b3bd
00000240: 1be3 07be 4b49 bc3c a163 91bd 710e 73bd
00000250: 22ba babd 3400 a33d 91f7 3dbd a445 79bd
00000260: fa07 bbbd 46ad 96bd 254c 043e 5ce3 9ebd
00000270: 29a8 bf3d b74b 91bc 9873 64bd 7ffd cb3d
00000280: 04dd c33d da48 ef3a 933e e93d fd5b 3f3e
00000290: 4e58 7a3c 3a51 db3b 471c 3cbc 4ca3 103b
000002a0: 6b3f f23d 9103 c33d 8968 323d 5ba0 7a3d
000002b0: a6a0 b6b9 fcf4 9bbb f46f d43d f479 c6bc
000002c0: 0189 debb 668d a7bd 2e47 b53d 5f0f f63d
000002d0: 5d58 1ebe fad8 f43c 180c 0b3c 15f9 b0bd
000002e0: f80d 2b3d 4c9d f03d 5b58 55bd 35c0 ddbd
000002f0: ce2b 9bbd a036 6c3e e93d 853d 42c0 27bc
00000300: 7930 1fbc 7da4 f23d 0ece ee3d 3271 6abc
00000310: cd09 f03d 20d0 0d3e 24c9 05bd ee18 5cbd
00000320: 32c7 f8bc bf8f 253e 8fe5 c73d d54b 063d
00000330: e4a9 e0bc 7fd6 143d 88f4 02bd 2f2c 8e3d
00000340: 3b17 903d 4198 cbbd f6f2 73bc 21ca 893d
00000350: aae3 943d 57c2 92bd b8df 7d3d 6bad b139
00000360: 5fa0 3e3d 5994 36bd c2aa a83d a040 b4bd
00000370: 875c 2d3c 33da d43d 6a5e 013d 6167 0b3c
00000380: aa86 37be a142 59bd fdbc fbbd 97bf 863e
00000390: a343 25be 9c7e 06be 0aee 873e 2fe6 92bd
000003a0: 3ff8 8e3d 7ba0 d9bd 2b97 cdbd 7445 1fbe
000003b0: 8ac2 1cbe 7d8e d93d 3030 0dbd 1279 4a3e
000003c0: 7800 013d 6628 37bd 8afd 103e fa37 2a3e
000003d0: 709b a43d 486a 7fbd 4009 3fbc 7cc2 833d
000003e0: 9e0e f2bc cd91 153d f910 b6bd a055 b23d
000003f0: a2b7 2fbc 7f13 203d 45e9 87bc fd63 26bd
0.040182374 -0.025763312 -0.1007635 -0.115277305 0.08161921 0.07572621 -0.04210661 -0.01725168
0.012456683 -0.09094625 -0.008676956 -0.01960745 0.08855257 -0.097385466 0.046971224 -0.017638233
0.07179774 -0.009154246 -0.039566126 0.029842095 -0.037245505 0.032669246 -0.03844116 0.075509585
-0.037500516 0.06509253 0.008227296 -0.07777195 0.091289096 -0.066262335 -0.07383188 -0.077886134
-0.118542105 0.001058241 0.089482106 -0.07354866 0.068457134 0.046200283 -0.012283415 -0.0440177
0.011559062 -0.11243093 -0.06750754 -0.084676936 0.02544128 -0.091632344 -0.04025238 -0.08557867
-0.03856337 -0.12887049 -0.092368394 0.062049292 -0.11063812 -0.009804121 -0.058720957 0.033117305
0.08835764 -0.019449875 0.08572909 -0.06978493 0.017357716 0.04180024 -0.070842594 0.03513514
0.0943946 -0.10059777 -0.03503014 -0.09110264 -0.031112153 -0.013911617 -0.07566768 -0.034378488
0.001659222 0.059139308 -0.0534066 -0.09208897 -0.01219163 -0.050998725 -0.00294061 0.041748032
-0.054194853 -0.06823838 0.017126039 -0.03395486 0.050686345 -0.09602899 -0.033076197 -0.062323287
-0.10793791 -0.03516507 -0.09869155 -0.10471293 -0.10705502 -0.07893767 -0.05142224 -0.034447532
-0.05825915 0.024045434 0.09667929 0.028640991 -0.07650899 -0.10566932 0.039059617 -0.060414843
0.05386198 0.100634746 0.061419044 0.06683071 0.09088206 0.10330132 -0.10238047 0.042154834
-0.072672375 -0.051504523 -0.04618388 0.104048684 0.055376783 0.023926508 -0.08477922 -0.0727773
-0.014331555 -0.03358216 -0.081189856 -0.10431637 0.037583303 0.10701669 0.0093707945 0.055696305
-0.10683366 0.10393813 -0.05484464 0.054482177 0.022280345 0.0976421 -0.01867411 -0.09194802
-0.07596515 -0.0061907857 0.01978337 0.061931383 0.034019854 -0.077823654 -0.07231154 -0.0874112
-0.13270228 0.022984168 -0.07099081 -0.059339944 -0.09117533 0.07959023 -0.046378676 -0.06085743
-0.09132381 -0.07357268 0.12919672 -0.07758209 0.09358246 -0.017736299 -0.0557743 0.0996046
0.0956364 0.0018255964 0.11388888 0.18687434 0.015279843 0.0066930326 -0.011481351 0.0022069989
0.11828502 0.095221646 0.043556724 0.061188083 -0.00034833438 -0.004759429 0.10372916 -0.024228074
-0.0067912345 -0.081812665 0.08851467 0.120146506 -0.15463395 0.029888619 0.00848677 -0.086412586
0.04176137 0.11748752 -0.052086215 -0.10827676 -0.075767145 0.23067713 0.06505949 -0.010238709
-0.009716147 0.1184778 0.116603956 -0.014309214 0.11720619 0.13848925 -0.032662526 -0.053734712
-0.030368421 0.16168116 0.09760582 0.032787163 -0.02742476 0.036337372 -0.031971484 0.06942021
0.07035681 -0.099411495 -0.014889469 0.06728006 0.07269986 -0.07165974 0.061980933 0.00033889277
0.04653966 -0.04457507 0.082356945 -0.08801389 0.010581142 0.10393181 0.03158418 0.008508534
-0.17922464 -0.053042058 -0.12291906 0.26318046 -0.16139083 -0.13134235 0.26548797 -0.0717281
0.06980943 -0.10626312 -0.100385986 -0.15553838 -0.15308586 0.106228806 -0.034469783 0.19772747
0.031494588 -0.04471626 0.14159217 0.16622916 0.0803746 -0.062357217 -0.01165992 0.06433579
-0.029547986 0.036516 -0.08889956 0.08707738 -0.010724934 0.039081093 -0.016590724 -0.0406227

sequential/conv2d_2/Conv2D f4 [16, 3, 3, 32]
00000000: d4f5 14bd f232 603d e6ec 133d 6d51 9c3d
00000010: 98bd 50bd 2723 98bd 44b5 7fbd f713 7bbd
00000020: 4e0a cf3d 183a 213b 4271 4b3d 178a a7bd
00000030: 302e b6bb 0ade 043d 4886 363d 302c 8ebb
00000040: ef61 bfbd c260 333d 8067 82bd 277e e23d
00000050: 3981 973d 9beb da3d 2d67 963c 2212 97bd
00000060: 7068 dbbd 457e 2c3d 1d67 e43c 812f db3d
00000070: b008 eb3b 3c18 ed3c cbaf bbbd 4f36 afbd
00000080: 74b6 e63c 02ac 503d 5a60 96bd 5e69 9ebd
00000090: feed 8ebd c53a 81bd 2c14 5abd 1539 ec3d
000000a0: d7d4 28bd d256 64bd 25ae 98bd 9910 18bd
000000b0: d52c 9bbd 4d09 873d 9276 a0bd c05d d3bc
000000c0: fc76 d7bc f2d0 423d 543d ffbc e311 d13d
000000d0: a7c5 c93d baca 9cbd b562 163d db28 063d
000000e0: be43 723d 981c 43bc 7cab 783c 8e9d 30bd
000000f0: 1fe8 de3d 7a76 c5bd ebb4 dabd e899 313d
00000100: eaf1 5b3d a565 9fbd 3bea a13d 63eb c53d
00000110: 5434 81bc dece 433d 3a6d 1dbd ab9f 853b
00000120: 7ee1 ddbb 5d59 143c d2eb a7bd 75b4 81bd
00000130: 975b 8f3d 0de0 8c3d 2789 7cbd bca6 a7bc
00000140: 3c59 24bd 302e 5abd f2cd 52bd becc efbd
00000150: 242b d8bd d8a8 063c 440f 953d 8f4c 253d
00000160: 5f94 ce3d 0d0a c4bd e56f a53d 8eb5 0ebd
00000170: 65d2 b53d 849e ae3c a828 953c 3851 d63d
00000180: 1c69 d43c 442e 05bd 1914 1cba fe7a 74bd
00000190: ac10 a8bc 90bf cebc a23c 953c 6a2b 0fbb
000001a0: 6a94 803d b4a5 ccba 0140 b0bd 35d6 893d
000001b0: f918 1bbd 5039 02bc 5d14 c6bd cf5f 253d
000001c0: 1acd 92bd 8684 6dbd 3361 013d 34d9 8ebd
000001d0: 4356 f6bd be9e 78bd 6cfb af3d e47a 8f3d
000001e0: b484 f13c bfed 18bd ae5f 37bd b8b0 36bd
000001f0: 05bf cfbd 50f8 24bc a992 183d 5d7a 643a
00000200: 7f0d 7bbd 8bd9 b53d e338 aa3d 5683 423d
00000210: eaf7 3c3d 00dd f83c 5780 933d 11fb dfbd
00000220: 5fa7 17bb 43a6 e43c 849f babd d219 c6bb
00000230: e293 913d 9901 38bd c504 58bd e004 9c3d
00000240: c24e 28bd 692b 6fbd b900 bcbd 6a15 283d
00000250: 54a6 b8bb 0ae0 00bd 2380 a9bc e4f7 74bc
00000260: a19b a3bd 17b4 fbbc ba85 a63c 9222 3abd
00000270: 5e76 153d d81c 32bc 688c d03d 5bcd b03c
00000280: 5c57 983c 22c2 f8bd 0c03 01be ee22 b6bd
00000290: 124b 85bd 0eb0 a5bd d4ee b03d 0e9e 9cbd
000002a0: 2586 aa3c ab25 e4bc 218c ad3d 8776 bdbd
000002b0: 6518 b2bd fee2 d1bd b75a f2bd 3d8c 923c
000002c0: 601a a63d 4723 d13c 4b65 b33c 006a 22bd
000002d0: 2d92 8cbd 905b b9bd ff71 673d 77be a0bd
000002e0: b6da 0e3d f063 29bd 0445 d53c d1eb 90bd
000002f0: ce2d bfbd e8de 143c 1ed1 1bbd 0975 ba3d
00000300: b6a0 743d ad0c 30bd c075 fdbb e0be 92bc
00000310: f831 59bd cc12 59bd 29c0 84bc 3f78 203d
00000320: 76a4 1c3c 7730 a33d 77e9 abbd f818 cfbb
00000330: 0496 6d3d b483 d23d f462 9c3d fbe2 d23c
00000340: 420b 823d 739e a03d 4f4f 4b3d 6977 d63d
00000350: 3558 ebbc a099 c0bb 7f41 c93d 1a70 3b3d
00000360: 5886 cdbd ac4f b13c 812c 9a3d fc00 2dbd
00000370: 6c03 f13c 6ffc ba3d bf0e 28bd 7f34 2cbd
00000380: 2561 883d a3df 00be 4016 f13a e299 9fbd
00000390: 3337 a5bd 1406 c5bd 96f1 fd3c 9d5d 2d3d
000003a0: 5797 343d 0d89 00bd 4a9e 6e3d 3b09 083d
000003b0: fa7d 7c3d 75c5 32bd c8f6 b1bd de17 213b
000003c0: 95c7 f3bd a9e1 5c3c bf74 ddbc 4826 d4bc
000003d0: 91a1 9fbd ee0b 353d 203e 34bd e401 b9bc
000003e0: f642 b8bd 9508 f53b 20b8 b9bd efd9 e4bd
000003f0: eb61 ea3d 0a84 14bd 3488 a43c bf55 a3bd
-0.036367252 0.054736085 0.036114596 0.07632718 -0.05096206 -0.0742858 -0.062428728 -0.061298337
0.10109387 0.0024601277 0.049668558 -0.081806354 -0.005559705 0.032438315 0.044561654 -0.0043387637
-0.09344851 0.043793447 -0.06367397 0.11059218 0.07397694 0.106894694 0.018359745 -0.073765054
-0.10713279 0.042112608 0.0278812 0.1070242 0.0071726665 0.02894222 -0.09164389 -0.085552804
0.028163172 0.05094529 -0.07342596 -0.07734941 -0.06978987 -0.063100375 -0.053241894 0.11534325
-0.041218605 -0.05574686 -0.074550904 -0.037125204 -0.075769104 0.06593571 -0.078351155 -0.02580154
-0.026301853 0.047562547 -0.031157173 0.1020849 0.09852152 -0.076558545 0.036715228 0.032753807
0.059146635 -0.011908673 0.015177604 -0.043119006 0.10884117 -0.09641738 -0.106790386 0.043359667
0.053697504 -0.07783059 0.07906004 0.09664037 -0.015772022 0.047804706 -0.038434245 0.004077872
-0.0067712655 0.009054509 -0.08199276 -0.063332476 0.06999891 0.06878672 -0.061654236 -0.020465247
-0.040124163 -0.053266704 -0.051465936 -0.11708973 -0.105551034 0.008218966 0.07278302 0.040356215
0.10086893 -0.095722295 0.08077983 -0.034841113 0.0887802 0.02131582 0.018207863 0.1046471
0.025929026 -0.032514825 -0.00059539225 -0.059687607 -0.020515762 -0.025237828 0.018217389 -0.0021845945
0.06278308 -0.0015613348 -0.08605958 0.0673031 -0.037865613 -0.007948235 -0.09671853 0.040374573
-0.07168026 -0.057987712 0.031586837 -0.06975022 -0.12028172 -0.060698263 0.08592877 0.070058614
0.029482223 -0.037336107 -0.04476898 -0.044602126 -0.10143856 -0.010068968 0.03724924 0.00087157433
-0.061292168 0.08879384 0.083116315 0.047488533 0.046134867 0.030378819 0.07202213 -0.10936559
-0.0023140532 0.027911311 -0.091124564 -0.0060455585 0.071082845 -0.0449234 -0.052738924 0.07618117
-0.041090734 -0.05839101 -0.09179825 0.041036047 -0.005635062 -0.03146366 -0.020690983 -0.01495168
-0.07988668 -0.030725522 0.020327438 -0.045443125 0.036489837 -0.010871135 0.1018303 0.021582296
0.018596344 -0.12146403 -0.12598819 -0.08893381 -0.06508459 -0.080902204 0.08639303 -0.07647334
0.020815918 -0.027849993 0.08473993 -0.09251123 -0.08696059 -0.102483734 -0.11833709 0.017889136
0.081104994 0.025529517 0.021898886 -0.03965187 -0.06863818 -0.09050667 0.0565052 -0.07848828
0.034876548 -0.041355073 0.026033886 -0.070762284 -0.093349084 0.009086348 -0.038041227 0.09104354
0.05972358 -0.04298084 -0.007734984 -0.017913282 -0.05302617 -0.05299644 -0.01620491 0.039177176
0.009560695 0.07968228 -0.08394139 -0.006320115 0.058004394 0.10279027 0.07636061 0.025742998
0.063498035 0.07842722 0.04963618 0.104719944 -0.028728584 -0.0058776885 0.098269455 0.045761205
-0.1003539 0.021644436 0.0752802 -0.042237267 0.029420577 0.09130179 -0.041029688 -0.04204225
0.06659154 -0.1258531 0.0018393472 -0.07793023 -0.08067169 -0.096203 0.030998986 0.042325605
0.04408964 -0.0313807 0.058256425 0.033211928 0.061643578 -0.04364534 -0.08689648 0.0024580876
-0.119033016 0.013481536 -0.027033208 -0.02589716 -0.07794488 0.04420083 -0.04400456 -0.02258391
-0.08997147 0.0074778297 -0.09068322 -0.1117438 0.114444576 -0.036258735 0.020084478 -0.07975339

sequential/dense/BiasAdd/ReadVariableOp f4 [128]
00000000: 75cb 8ebc 49f9 24bb c17c 4cbd 3c8d bbbc
00000010: 89d0 88bb 97c9 2dbc cc2e 80bc 2f2c e3bc
00000020: 64a7 253c 8868 d3bc 46b0 503d 7115 88bb
00000030: 4598 433d 5319 893c b93a fc3c f917 51bc
00000040: 8c9b 0bbd 13ab 15bc 3976 4e3d 9504 023d
00000050: 0e71 e53c 7865 0cbd a1a4 413d 14db cdbc
00000060: d869 4cbc 7e44 0fbd 0000 0000 cf37 833d
00000070: 7c5d 433c f9ac 17bc bbf4 14bd 6600 3cbc
00000080: f7c0 2abc a4c9 393d 90b3 f93c 3486 92bb
00000090: 78a5 e8bc 251b b63c d9a6 633d 7b92 333d
000000a0: 5e3f 20bd 63bf 63bc 95a7 b6bc 2022 1bbc
000000b0: 522e 03bd 5f09 05bd ee08 3d3d 5309 bdbc
000000c0: 17de dbbc d1ad d0bc 4b40 1d3c 4069 01bd
000000d0: e732 1bbc e7d2 06bd d63b b1bc 66ae cbbb
000000e0: 2bd7 d13b c462 ffbc 062b 143d f444 6f3d
000000f0: e701 efbc e8ee 08bd d9c2 b33c 87bf f6bc
00000100: 355c 47bd f58f 29bc e99c abbc 5724 61bc
00000110: c81d fdbb 1300 1b3d d01a 4b3c 05b7 edbb
00000120: 9768 453d 3710 ffbc 1bfb f8bb 8019 443d
00000130: 43ab 31bd 981c 073d 087d 03bd bb12 f9bb
00000140: bd86 15bc dffe d4bc 60b4 0ebd b1c3 e13c
00000150: ed52 c4bc be36 59bc ad72 973c 4243 46bc
00000160: 3db2 363d 80f7 2d3d 8f20 653c 228a 9cbc
00000170: dcbe c9bc 846e 99bc e952 b7bb a7f6 a5bb
00000180: b4fe 37bd 1869 7cbb 976b 81bc 94e3 8dbc
00000190: ea8a d5bc ea06 86bc 5e12 063b 0000 0000
000001a0: 89e3 ec3c b8c3 493c ece4 cdbb f342 653b
000001b0: 2098 953c ac43 1abc 66d0 28bc e20b fdbc
000001c0: 0000 0000 cdab 8dbc 7a6f aabb 050a b5bc
000001d0: 07a8 4c3d 2c25 02bc d5b1 883c d94c 283c
000001e0: f0bc a9ba 5b9e 37bc c021 f0bc 0ee4 903d
000001f0: 617c 2bbc 1cd0 943d 8a13 f6bc 2dc5 97bb
-0.017431 -0.0025173 -0.049923662 -0.022894494 -0.00417525 -0.010607145 -0.015647314 -0.02773103
0.01011071 -0.02580668 0.050949357 -0.0041529466 0.047752637 0.016735708 0.03078972 -0.012762063
-0.034083888 -0.009135026 0.050405715 0.03174265 0.02800801 -0.034276456 0.047276143 -0.025128879
-0.012476407 -0.03497743 0.0 0.06407129 0.011924144 -0.0092575485 -0.036366206 -0.011474704
-0.010421983 0.045358315 0.03048113 -0.0044715647 -0.028399214 0.02222974 0.05557904 0.043840867
-0.03912293 -0.013900611 -0.022296706 -0.009468585 -0.032026596 -0.03247964 0.046151094 -0.023075735
-0.0268393 -0.025473507 0.009597848 -0.031594515 -0.009472585 -0.032915976 -0.021634977 -0.0062158583
0.006403824 -0.031175025 0.036173843 0.05841537 -0.029175712 -0.033430964 0.021943497 -0.030120624
-0.04867192 -0.010349263 -0.020948844 -0.013741574 -0.0077244975 0.037841868 0.012396529 -0.0072544836
0.048195448 -0.031135662 -0.0075982935 0.04787588 -0.04337622 0.032986253 -0.03210166 -0.00760111
-0.009126362 -0.026000438 -0.034839988 0.027559133 -0.023965323 -0.01325768 0.018487299 -0.012100996
0.044603575 0.042472363 0.013984813 -0.019108836 -0.024627142 -0.018729456 -0.0055946005 -0.0050648036
-0.04492064 -0.003851479 -0.015798373 -0.017320432 -0.026067216 -0.016360719 0.0020457725 0.0
0.028917091 0.012314729 -0.006283393 0.0034982532 0.018261015 -0.009415548 -0.010303592 -0.030889455
0.0 -0.017293835 -0.0052012773 -0.022099504 0.04996493 -0.007943433 0.01668636 0.010272228
-0.0012949985 -0.0112071885 -0.029312968 0.07074748 -0.010466666 0.07266256 -0.030038614 -0.0046316595

sequential/dense_1/BiasAdd/ReadVariableOp f4 [4]
00000000: 3cc3 783d a053 33bd d406 a1bb 4dbc 8bbb
0.060733065 -0.043780923 -0.004914144 -0.0042643906

sequential/dense/MatMul f4 [128, 160]
00000000: 348e 903d bd34 fcbb 42cb a33d 1bd3 4ebc
00000010: 5e5d d63d 11f6 fdbd f439 ff3d 374b 93bd
00000020: 53bb cdbd 3c3d 33ba 9c5d fd3d 0f23 133e
00000030: c751 d0bd 806d 3dbb 8f0f 8abd d725 b83d
00000040: 002d b83d 24fa f73d 29cc a93d e2d5 2abd
00000050: a8e9 ea3b 7c21 1f3d cc32 4f3d 40b6 4fbc
00000060: 718f 0dbd 0b78 20bd 11a7 383c 41ad 94bd
00000070: aea1 563c 4c18 a93d 87ef 45bd 5e9c 89bd
00000080: 10b5 e23c 4036 b4bd a9c2 9f3d 5897 35bd
00000090: 57dd 86bd bf79 d4bd aabc 2ebd 7c6c c7bc
000000a0: e78b c3bd 8458 b13c d1b3 ebbd 5d24 fc3c
000000b0: bd50 20bd ccf5 d5bd 1fa6 0c3e 2474 0c3d
000000c0: 481b 89bc f466 973c c5be 32bc 1ad8 7b3d
000000d0: 34d2 7f3d b4a6 bd3d 6caa 72bd 513a b8bd
000000e0: c80c b03d 4e0c 2c3d 8e01 82bd 99a9 843c
000000f0: 89b2 92bd 50ec c13d afe0 ac3c 806a 83bd
00000100: c20f a23d d9da 263c 55bb 173c 3acf b63d
00000110: 4ace d93d a1c0 b0bd c84a 303d bc38 d73d
00000120: a2db a93d 959a 98bc d036 0d3c 1a82 3cbd
00000130: 702d 75bd 2420 9f3d 214b 79bd 61fc d3bc
00000140: a8a8 10bd af20 3b3d 3074 1b3b 9cf9 be3d
00000150: ea06 3a3d 7a8e cfbc 40c1 70bb a020 d8bc
00000160: 1d6d 5dbb c00b 8f3d 0f06 11be 18e6 adbd
00000170: 8f48 e2bc a8b7 303d 53e7 e13c 06b0 d53d
00000180: 37d7 a0bd 73cc d1bd 0425 48bd a058 60bd
00000190: de89 55bd a16f a83d d8af 823d 800f 4e3c
000001a0: 6833 04be bf43 07be f776 cebd 2328 b6bd
000001b0: b5b9 f4bd 9574 00be f137 883d 99b7 343d
000001c0: d27b b13d 5518 02be a4c0 d0bd 1516 3c3e
000001d0: eb37 f6bd 1c59 a1bc 6632 a43d e03e 3d3c
000001e0: 9b11 1cbe 8598 6a3d 1142 f2bd 6261 fcbc
000001f0: 5a24 13be fd51 13be ea2e 9fbd 75b5 02be
00000200: fea6 a73d f2f9 273c d59c e9bd 762d 6f3b
00000210: 597b f7bc 7d90 d9bd d8d9 e33d e8cf d1bc
00000220: 5a43 e1bd bfd3 f13d 7ede d8bc 5185 6fbd
00000230: 4d43 b43d 281f bd3c 06d6 ca3d e8d2 b5bd
00000240: 007a 20bb ba8a 4cbb 9353 c53b e07b ecbb
00000250: 9b4e b23d f2c5 d63d 4031 713b 38c9 c33c
00000260: d94f 47bc 3457 febd 4a6c 0fbe 24f1 3d3d
00000270: 5980 bb3c 162d 94bd 5daf 86bb caf6 0cbd
00000280: da26 04bd 94bd 2fbd 84fa 0abe 7116 0fbe
00000290: 4d20 fb3d c020 9d3d 4c40 533d 507d 753c
000002a0: cc2a f9bd 6635 2fbd 5748 9fbd 1914 b23d
000002b0: 5af8 0cbe 54b0 1dbd d82e f03d 446a 25bd
000002c0: c4b1 5abd 8dad 02be e56d 76bd 8abc e7bd
000002d0: 7385 f33d d513 7ebd d80b f1bc 4099 56bb
000002e0: b333 0c3c 07cc 2fbc fdd1 bd3d e8d3 153e
000002f0: be81 dbbd bcec 4fbd 83a1 2ebd 9bcf fdbd
00000300: 2690 3ebd e541 bf3c 1d2d 0bbe 1f43 19bc
00000310: e2bf b33d 2838 e6bd 3ea2 6dbd 8412 69bd
00000320: 1db1 f93d 459d cebd 90e0 5cbd f83b cc3d
00000330: d7a2 73bd 2c3c e83d ba22 57bc e9eb 83bc
00000340: 5035 fcbd a093 0a3e d00a 98bd 1c15 0c3e
00000350: bdd6 30bd 0419 af3d 1e3c 9e3d b863 fb3d
00000360: b0f3 59bd 5ca2 3b3d f51c 8f3d 5042 00be
00000370: bb78 15be 235d e8bd 4cb1 033d 7e9f 343e
00000380: c23a aabd 5544 0abc a7f9 ddbd c5f4 f9bd
00000390: 12cd b43d ffeb 173d f602 cbbd f393 9abd
000003a0: 03bd c8bc 2c7e a93c 1af4 f23d e3ff 83bd
000003b0: 65b9 153e e0fc 9dbb dbde 11bc 7b5c e73d
000003c0: c03e 31bd b781 e83d 6cbc 02bc 3ce4 2a3d
000003d0: 24c9 91bd 89cc a53d 39c4 c4bd 70c0 8b3c
000003e0: 0f5d 03be a81d f3bd 00f4 08be 20a0 8c3d
000003f0: fd6d 72bd f5a3 89bd f0ec 29bd 4f63 eb3d
0.07058373 -0.0076967166 0.07997753 -0.012623574 0.10467027 -0.12400449 0.124622256 -0.071920805
-0.10045495 -0.0006837433 0.1237137 0.14368843 -0.10171848 -0.0028904378 -0.06741249 0.089915924
0.08992958 0.121082574 0.082908936 -0.04170788 0.0071689673 0.038850293 0.050585553 -0.012677729
-0.034560625 -0.039176982 0.0112703005 -0.07259608 0.013100071 0.082565874 -0.048324134 -0.06719278
0.027674228 -0.0879941 0.078008 -0.044333786 -0.06585186 -0.10374784 -0.042660393 -0.024343722
-0.09548169 0.021648653 -0.11508907 0.030779058 -0.039139498 -0.10447273 0.13735245 0.034290448
-0.016736642 0.018481709 -0.010909741 0.061485387 0.062456325 0.09260312 -0.05924456 -0.08995498
0.08596188 0.042003922 -0.06347953 0.016194152 -0.07162959 0.09468901 0.021103231 -0.06416798
0.07913162 0.010184013 0.009260972 0.08926244 0.1063505 -0.08630491 0.043040067 0.10508868
0.08293845 -0.018628398 0.008619025 -0.046022512 -0.059857786 0.07769802 -0.060862664 -0.02587718
-0.035317093 0.045685466 0.0023720376 0.09324953 0.04541675 -0.025336493 -0.003673628 -0.026382744
-0.003378696 0.06984663 -0.14162467 -0.084911525 -0.02762249 0.0431439 0.027576124 0.104339644
-0.07853549 -0.10244074 -0.048863426 -0.05477202 -0.052133434 0.082244165 0.06381196 0.012576938
-0.12910235 -0.13209437 -0.100812845 -0.08894374 -0.11949483 -0.12544473 0.06651295 0.044120405
0.08666195 -0.12704594 -0.10192993 0.18367799 -0.12022384 -0.019695811 0.08017425 0.011550635
-0.15241091 0.05727436 -0.118290074 -0.030808154 -0.14369336 -0.14386745 -0.0777262 -0.12764533
0.08186148 0.010252463 -0.114068665 0.0036495603 -0.030210184 -0.10623262 0.11125535 -0.025611833
-0.109991744 0.118079655 -0.02647328 -0.05847675 0.08801899 0.023086146 0.09904103 -0.08878118
-0.002448678 -0.0031210617 0.0060219257 -0.0072169155 0.08706399 0.10486974 0.0036803037 0.02389966
-0.012165033 -0.124189764 -0.14006153 0.046372548 0.02288835 -0.07235162 -0.0041102604 -0.034415044
-0.032263614 -0.042905405 -0.13572127 -0.13973404 0.1226202 0.07672262 0.05157499 0.01498349
-0.12166366 -0.042775534 -0.077774696 0.086952396 -0.13766614 -0.038498238 0.11727685 -0.040384546
-0.053392187 -0.12761517 -0.060163397 -0.11315258 0.11890688 -0.062030632 -0.029424593 -0.0032745153
0.008557248 -0.010729796 0.09268568 0.14631617 -0.10718106 -0.050762877 -0.0426345 -0.12393113
-0.04652419 0.02334685 -0.13591428 -0.009354382 0.08776833 -0.1124118 -0.058016054 -0.056902424
0.12191985 -0.100885905 -0.053925097 0.09972376 -0.059481468 0.11339602 -0.013130838 -0.016103702
-0.12314856 0.13532877 -0.07423937 0.13679928 -0.04317354 0.08549693 0.0772631 0.12274879
-0.053210914 0.045809135 0.06987945 -0.12525296 -0.14596836 -0.113458894 0.032151505 0.17638966
-0.083119884 -0.008439143 -0.10838633 -0.12204889 0.088281766 0.037090298 -0.09912674 -0.0754775
-0.02450419 0.020690046 0.11862965 -0.06445291 0.14621504 -0.004821405 -0.008903231 0.11296936
-0.043272734 0.11352866 -0.007979494 0.041721568 -0.07118443 0.080956526 -0.09607739 0.017059535
-0.12828468 -0.11870891 -0.13374329 0.06866479 -0.059186924 -0.067207254 -0.041485727 0.11493551

sequential/dense_1/MatMul f4 [4, 128]
00000000: 61df bcbd fb45 373d 314b a7be 3830 81be
00000010: 47eb 003e f5f1 f3ba 7b7f 2e3e 74c2 16be
00000020: ec25 5d3e 76bd 54be 85c5 0c3e 68f6 343d
00000030: 8bfe 623e 071a 8abc 506d 9a3d d5c4 9dbc
00000040: 3d04 943b 503d 0b3e 71f1 933e d245 a33d
00000050: ecbf a83e a16f 90be 32f1 e93d d696 80be
00000060: 18c9 e0bc 7940 63bd d813 223e 0277 783e
00000070: b6c6 523e 6d0c 473e 2b8a 3bbe eced 3abe
00000080: bda3 68bd 3684 3c3e 68eb 3c3d 7878 1b3e
00000090: c0aa 4cbe 837a 9e3d 7ffa 3b3e 46c3 9d3e
000000a0: 8bad 53be 91d9 01be 6d9d 21be fe17 2fbd
000000b0: 764e 69be c4a6 dcbd 24c3 3f3e 402a 213e
000000c0: d4e4 c1be d98c 81be 0af4 3c3e f01d e9bd
000000d0: ee33 0e3e 2d92 88be 7bd4 81be 6f90 debe
000000e0: 170a 023e 9414 87bd 088e 9b3e 7259 7e3e
000000f0: 7364 34bd 1a33 98be 1fa9 493e 71de 02be
00000100: a21e c5bd 23d5 1c3d 37e0 04be 74e0 6a3d
00000110: 52b2 2a3e 68e9 173e 712b 793d 751a 243e
00000120: 6b65 613e 7b4e a7be 089a 003e ccc4 563e
00000130: 9125 39bd 1f58 093c dd7b d3bc 2cba c2bc
00000140: 3587 2dbe f24e d4bd 68ad 8dbe 921f 153d
00000150: 6654 65be ecbc 27bd f253 0c3d d099 01be
00000160: 28a2 113e 1407 eb3d 371f 23bd 8a6b e5bc
00000170: be78 80bc 92c6 6dbe 8c8d 563e cc90 bfbd
00000180: c967 81be 343f 04be 221c d83d 8989 12be
00000190: aaf6 12be 8111 d8bc eabc 813d 4cb4 37bd
000001a0: d314 0e3e 5997 d3bd 7076 70bd 477f 183d
000001b0: e53c 923d 0acc ef3b 8405 0cbe 8c9e 6cbe
000001c0: 5e06 afbd 261d 293d 16d6 1f3d 7ce9 953d
000001d0: 13e0 233e 920a 803d 1360 2c3e 69b4 2cbb
000001e0: 130a 4bbe f949 0b3e 9a26 30be 804e ae3e
000001f0: 5524 a23d 6846 513e 9ae7 43be a17e cc3d
00000200: cfb2 4ebe a415 a73d 40f2 143e e4ad d0bd
00000210: 7a78 cdbd a0ed 393e ca3e 47be 586a e13d
00000220: 4d8c 483e ca80 c73d 83f4 bd3d a412 073b
00000230: 6f84 4bbe 6718 17be 02ce d6bd 346f 30be
00000240: 3c3e 383e 1844 f4bd 4052 44be 08eb 30be
00000250: ac1f c83c 6bb6 4a3e 93cf 80be 7808 8b3e
00000260: ecc2 343c a439 d13d 5c58 573e 1777 2fbe
00000270: f90b 343e 9ee9 c03c f266 773d 53c2 c1bd
00000280: faaf 93bd c433 e43d 34c1 6bbe 0789 283e
00000290: 67a2 743d 20ae c83d 4455 4bbe c457 1dbe
000002a0: d049 183e d2f2 6a3e b7af 023e 9e6e 55bd
000002b0: dc17 8e3c 3bc4 be3b 6a26 89be 4ff9 033e
000002c0: bdb3 ed3c dd9f 803e e470 523e 10e4 053e
000002d0: 7a4b 563e 4389 173e 88f4 c2bd aa70 f83d
000002e0: 8b55 3abe cc5c 5c3e 3c6a 36be 05c4 97be
000002f0: 64e1 063e 030e b0bd 1fd5 91be abd7 333d
00000300: 18cc ca3d 7415 0c3e dc3b 543e 1f15 8abc
00000310: 1c5a cbbd d5de 233e 0b34 e33d 76c8 f7bd
00000320: 11cd 60be b554 84bb 7d61 2b3e b874 493d
00000330: 9ff1 333e 6698 d5bd 790b a83d a077 183e
00000340: 22d5 16be b856 cb3c a10f ce3d 8843 59be
00000350: 58c2 5f3e ee1e edbd 325f c03d b9bc 5d3d
00000360: e120 ecbd ea2b e0bd 3c49 dabd 7790 03be
00000370: eb09 37bd 3bbc 95bd 3b2d 553e e792 653e
00000380: d4d5 24bd dad6 adbd 8914 973c a1b1 07be
00000390: 27d0 5abd da2f 833e fc44 303e 5d13 33be
000003a0: 9111 813d 61df e4bc 8178 cc3d 11f2 793d
000003b0: 25e8 d33d e398 b13d b6a6 8cbd 17aa 4c3e
000003c0: 2ac4 163e e5de 163e e1aa c7bd ef1f c3bd
000003d0: 315a debd 92fa 6d3e eef5 703d fd49 84be
000003e0: 489e 3dbe 8b9a 29bc 1c04 133e 1608 4cbe
000003f0: 47f8 f23c 5efd 07be 252f 183e 8cd2 4abe
-0.09222294 0.044744473 -0.32674554 -0.252321 0.12589751 -0.0018611538 0.17040817 -0.14722615
0.21596497 -0.20775399 0.13747223 0.044180304 0.22167413 -0.016858114 0.07540381 -0.019258896
0.004517107 0.13597608 0.28895143 0.079723015 0.32958925 -0.28210166 0.114229575 -0.2511508
-0.027439639 -0.055481408 0.15827882 0.24264148 0.20583615 0.19438334 -0.18314426 -0.18254822
-0.056796778 0.1840981 0.04612294 0.15182674 -0.19987011 0.07738211 0.18357275 0.30813044
-0.2067167 -0.12680651 -0.1578271 -0.04274749 -0.22783837 -0.107739955 0.18726784 0.15738773
-0.37869895 -0.2530277 0.18452469 -0.11382663 0.13886997 -0.26674023 -0.25357422 -0.4346957
0.12699161 -0.06595722 0.303818 0.24838808 -0.04404111 -0.29726487 0.19693421 -0.12780167
-0.09624983 0.0382892 -0.12976156 0.05734296 0.16669586 0.14835131 0.060832445 0.16025718
0.22011344 -0.32677063 0.12558758 0.2097351 -0.04520184 0.008382826 -0.025815899 -0.023770414
-0.16946109 -0.1036662 -0.2767136 0.03640706 -0.22395477 -0.040951654 0.034259744 -0.12656331
0.14222014 0.114759594 -0.03982469 -0.02800538 -0.015682574 -0.2322028 0.20952433 -0.0935379
-0.25274494 -0.12914735 0.10552241 -0.14310278 -0.14351907 -0.026375534 0.063348606 -0.04484968
0.13875131 -0.10331602 -0.0587067 0.037230756 0.07140521 0.0073180245 -0.13673979 -0.23107356
-0.08546136 0.041287564 0.039022528 0.07319924 0.16003446 0.06252016 0.16833524 -0.002635265
-0.19828062 0.13602437 -0.17202225 0.34044266 0.07917086 0.20437014 -0.19131318 0.0998509
-0.20185398 0.081584245 0.14545536 -0.10189417 -0.10032745 0.18157053 -0.19457546 0.110066116
0.1958477 0.097413614 0.092751525 0.0020610476 -0.19874738 -0.14755403 -0.104885116 -0.1722992
0.1799249 -0.1192705 -0.19172001 -0.17277157 0.024429165 0.1979615 -0.25158367 0.271549
0.011032801 0.10216072 0.210298 -0.17135273 0.17582692 0.023548897 0.06040091 -0.094608925
-0.07211299 0.11142686 -0.2302292 0.16458522 0.05972519 0.09798837 -0.19856745 -0.15365511
0.14871907 0.22944191 0.12762342 -0.052107446 0.017345361 0.0058217323 -0.2678712 0.12888072
0.02901637 0.25121966 0.20550877 0.1307528 0.2092723 0.14798455 -0.09519297 0.12130864
-0.18196695 0.21519774 -0.17813963 -0.2964174 0.13171917 -0.085964225 -0.2848291 0.04390685
0.09902209 0.13680059 0.2072596 -0.016855774 -0.099292964 0.16002972 0.11093911 -0.12098782
-0.21953227 -0.004038418 0.16736408 0.049183577 0.1757264 -0.10429458 0.08205313 0.14889383
-0.14729741 0.024821624 0.10061575 -0.21217167 0.2185148 -0.11578165 0.09393157 0.054135058
-0.11529709 -0.10945876 -0.106584996 -0.12848078 -0.044687193 -0.07311293 0.20818035 0.2241932
-0.040242985 -0.08488245 0.01844241 -0.13251354 -0.053421166 0.25622445 0.17213815 -0.17487855
0.06302179 -0.027938547 0.09983922 0.06102187 0.103470124 0.08671739 -0.06867735 0.19986759
0.14723268 0.14733465 -0.097493894 -0.09527575 -0.108570464 0.23240116 0.058828287 -0.258377
-0.18517411 -0.010351787 0.14357036 -0.1992496 0.029659403 -0.13280246 0.14861734 -0.1980688
