Code/PC/computer_vision_driver.tflite (tflite, 126296 bytes, 10 tensors)

sequential/conv2d/BiasAdd/ReadVariableOp f4 [16]
0	0x3c97a0dd	0.018509323
1	0xbb2b1d64	-0.0026110047
2	0xbd56bcf5	-0.052426297
3	0x3c74224c	0.014900755
4	0x3cd6971f	0.026195107
5	0xbc8d6568	-0.017260268
6	0x3d2ff6d9	0.04296002
7	0xbd47b60b	-0.048757594
8	0x3d612c23	0.054973733
9	0xbb951f4b	-0.0045508496
10	0xbc950669	-0.018191533
11	0xbd543198	-0.05180511
12	0xbd7c00ec	-0.061524317
13	0x3c386015	0.0112533765
14	0xbd35fe53	-0.044431996
15	0xbcd538f9	-0.026028143

sequential/conv2d_1/BiasAdd/ReadVariableOp f4 [32]
0	0xbd2814a6	-0.041035317
1	0xb9bb64b4	-0.0003574245
2	0xbcd0e8f7	-0.025501711
3	0xbc4f0936	-0.012636473
4	0xbc68551a	-0.014180446
5	0xbb528f57	-0.0032128894
6	0xbcd2069b	-0.025637915
7	0x3c91e992	0.01781157
8	0xbc5e0f32	-0.0135534275
9	0xbc2faa1d	-0.0107217105
10	0xbbb48c92	-0.0055099213
11	0xbc52ebbb	-0.012873585
12	0x3d41c86c	0.047310278
13	0xba1c37d4	-0.0005959247
14	0xbc33e2c4	-0.010979358
15	0xbc354b05	-0.011065249
16	0xbcb66c9f	-0.022268591
17	0xbc2c1256	-0.0105024185
18	0xbbe77b41	-0.0070642536
19	0xbca2119b	-0.019783786
20	0xbb83c29d	-0.0040210024
21	0x3d28055f	0.041020747
22	0xbc8b1f16	-0.016982596
23	0xbcad4dda	-0.021155287
24	0xbc913313	-0.01772455
25	0xbc59b9a2	-0.013288887
26	0xbc9c999a	-0.019116212
27	0x3c3d0f85	0.011539345
28	0xbc9178f2	-0.017757867
29	0xbc495858	-0.012289129
30	0xbc386af8	-0.011255972
31	0x3cbc3062	0.02297229

sequential/conv2d_2/BiasAdd/ReadVariableOp f4 [16]
0	0xbc942bde	-0.018087324
1	0xbca78ade	-0.02045196
2	0xbc7903cb	-0.015198658
3	0xbcb6801b	-0.022277882
4	0xbd1d45b5	-0.038396556
5	0xbc6f5134	-0.014606763
6	0xbc3394f2	-0.010960804
7	0xbcbbb20b	-0.022912046
8	0xbd1292fc	-0.035784706
9	0x3c3b3338	0.011425786
10	0x3d707c74	0.058712438
11	0xbc582598	-0.013192557
12	0xbcb6794a	-0.022274632
13	0xbce84fdf	-0.028358398
14	0x3da3aa7e	0.07991503
15	0xbb9518f8	-0.0045500956

sequential/conv2d/Conv2D f4 [16, 3, 3, 1]
0	0x3df184e6	0.117929265
1	0xbe44a123	-0.19202094
2	0x3ad52d9f	0.0016264206
3	0x3ce5e433	0.028062915
4	0xbe09b607	-0.13448344
5	0x3dd14f63	0.1022022
6	0xbe00aad7	-0.1256517
7	0x3cd6ba2e	0.026211824
8	0x3e03873e	0.1284456
9	0x3cb5c262	0.022187416
10	0x3db0aaf8	0.0862636
11	0xbd83510a	-0.06411941
12	0x3d598b4b	0.053111356
13	0x3dbbb465	0.09165267
14	0x3ce5bcbe	0.0280441
15	0x3ce6cb89	0.028173225
16	0xbe686161	-0.22693397
17	0xbddbc654	-0.107311875
18	0x3e0f3c18	0.13987768
19	0x3db5b213	0.088718556
20	0xbb5034cb	-0.0031769748
21	0xbe4fe7f0	-0.20303321
22	0x3e26d292	0.16291264
23	0x3cbbc5f3	0.022921538
24	0x3dbda98d	0.09260855
25	0xbe84b96d	-0.2592272
26	0x3d7796ea	0.060446657
27	0x3e5a7e09	0.21337141
28	0xbd8378c9	-0.06419522
29	0xbdaa5cc0	-0.08318472
30	0xbe069421	-0.13142444
31	0xbe30c7c1	-0.172637
32	0x3e0e9405	0.13923652
33	0x3d964965	0.07338218
34	0xbe0ec406	-0.13941965
35	0x3e052614	0.13002807
36	0x3e600a9f	0.21879052
37	0x3da10230	0.07861745
38	0xbab0d1e8	-0.0013490291
39	0xbdb63f99	-0.08898849
40	0xbe11faaf	-0.14255784
41	0xbe3d9341	-0.18513204
42	0x3e6f4968	0.23367846
43	0xbdfd81c3	-0.12378266
44	0xbdac4877	-0.08412259
45	0xbdca96bd	-0.09892032
46	0x3dab1da8	0.08355266
47	0x3e474e5c	0.19463485
48	0xbe4bdb6e	-0.19907925
49	0x3c921726	0.017833304
50	0x3da43e4a	0.08019693
51	0x3e1cb01f	0.1530156
52	0x3c84f01e	0.016227778
53	0xbe80e377	-0.25173542
54	0xbdef88bc	-0.11696002
55	0x3df4e19e	0.119570956
56	0x3d80fa07	0.06297689
57	0x3e26726a	0.16254583
58	0xbe16b64b	-0.14717977
59	0xbe2dcd3b	-0.1697282
60	0x3c766dd4	0.0150408335
61	0x3dbacbd5	0.09120909
62	0xbddebd2e	-0.10875927
63	0x3e395318	0.18098104
64	0x3e0c4925	0.13699777
65	0xbe59b65e	-0.21260974
66	0x3db23f75	0.0870351
67	0xbcf17425	-0.029474327
68	0xbd057975	-0.032586534
69	0x3dda349e	0.10654567
70	0xbdf1def9	-0.11810107
71	0xbdd9d3f2	-0.106361285
72	0xbdeceb30	-0.11568296
73	0xbda5ab28	-0.08089286
74	0x3d2eba29	0.042658005
75	0xbc0e7857	-0.008695683
76	0xbd700c7c	-0.058605656
77	0xbe3a2834	-0.18179399
78	0xbe21e08b	-0.15808313
79	0x3e8178bb	0.25287423
80	0x3e578ee0	0.21050596
81	0xbe007465	-0.12544401
82	0xbcd47150	-0.025932938
83	0x3e69222f	0.22766946
84	0xbd64375f	-0.05571687
85	0xbe54ae88	-0.20769703
86	0x3e014c49	0.12626757
87	0xbdf0f029	-0.11764557
88	0x3e168812	0.14700344
89	0x3dbbfd25	0.09179143
90	0xbe75bfa7	-0.23998891
91	0x3e1106f2	0.14162806
92	0xbd71c895	-0.05902918
93	0x3d8d8c86	0.06911568
94	0x3d56a128	0.052399784
95	0x3d4df67c	0.050283894
96	0x3c866705	0.016406545
97	0x3dde5d79	0.10857672
98	0xbdff3455	-0.124611534
99	0xbd8236da	-0.06358118
100	0x3e0e108d	0.13873501
101	0x3d23d195	0.039994795
102	0x3e22b6ca	0.15890041
103	0x3e002cfe	0.12517163
104	0x3cd1adf7	0.025595648
105	0xbe05c4d1	-0.13063361
106	0x3e0b1d34	0.13585359
107	0x3dfcd98d	0.12346182
108	0x3d77bbf6	0.060481988
109	0x3e2e816d	0.1704156
110	0x3de285ff	0.11060714
111	0xbdf165c8	-0.11786991
112	0xbba891a5	-0.0051443153
113	0xbc1519ba	-0.009100372
114	0x3d9c0f52	0.076201096
115	0xbe20aa93	-0.15690069
116	0x3cba3540	0.02273047
117	0xbe13c896	-0.14431986
118	0xbe27542d	-0.16340704
119	0xbdd2de3f	-0.10296296
120	0x3e4d5b7b	0.20054428
121	0x3d43cadd	0.047800887
122	0x3cbf0588	0.023318067
123	0xbe2e2111	-0.17004801
124	0x3e50792c	0.20358723
125	0x3d81d6e5	0.06339816
126	0x3db802f8	0.08984941
127	0x3e1d73cd	0.15376206
128	0x3e1e25c0	0.15444088
129	0xbe0ea62e	-0.1393058
130	0xbe1dd06e	-0.15411541
131	0x3dd87679	0.10569472
132	0x3e08ae6e	0.1334779
133	0x3cf58e6c	0.029975139
134	0x3de341e5	0.11096553
135	0xbda27678	-0.07932752
136	0x3e0b4a63	0.13602595
137	0x3dd3cf84	0.10342315
138	0x3da1952f	0.07889783
139	0xbdda5442	-0.10660602
140	0x3da85b87	0.082205825
141	0x3e278535	0.16359408
142	0x3d87bceb	0.0662783
143	0xbdc00452	-0.09375824

sequential/conv2d_1/Conv2D f4 [32, 3, 3, 16]
0	0x3e88b425	0.2669994
1	0x3e521644	0.20516306
2	0x3d1ec0f3	0.03875823
3	0x3e07eb2f	0.13273309
4	0x3e0b3d21	0.13597538
5	0x3ec6c71a	0.38823777
6	0x3e542b7e	0.20719716
7	0xbbe892d4	-0.0070975814
8	0xbc288bee	-0.010287268
9	0x3e48cd71	0.1960962
10	0x3eaf34c3	0.34219941
11	0x3d254e54	0.040357903
12	0x3e2606cd	0.16213532
13	0x3dfe9e18	0.12432498
14	0x3e195fd6	0.14977965
15	0x3e0a141a	0.1348423
16	0x3e37894e	0.17923471
17	0x3e42b6b1	0.19015004
18	0x3e9b3283	0.30311975
19	0x3e4d8649	0.20070757
20	0x3d5aa8be	0.05338358
21	0x3dded168	0.10879785
22	0xbd24940e	-0.04018026
23	0x3dad6e09	0.08468253
24	0x3dfc0de7	0.12307339
25	0x3e0831a5	0.13300188
26	0x3e13bcac	0.14427441
27	0x3d5780ff	0.052613255
28	0x3dbe29be	0.092853054
29	0x3e3965f0	0.18105292
30	0x3cbb718d	0.022881294
31	0x3e0be789	0.13662542
32	0xbe40b0d4	-0.18817455
33	0xbe044390	-0.12916398
34	0xbd8ab85c	-0.06773445
35	0x3ce9e99f	0.028553782
36	0xbe05f200	-0.13080597
37	0xbd368da4	-0.044568673
38	0xbce793f3	-0.02826879
39	0xbe19951f	-0.14998291
40	0xbe36bf94	-0.17846519
41	0xbe86abe2	-0.2630301
42	0x3d5c5275	0.053789575
43	0xbc076cb0	-0.008265659
44	0xbdb4dba7	-0.08830958
45	0xbdc95634	-0.09830895
46	0x3d9298f4	0.0715808
47	0xbcf0a5b8	-0.029375896
48	0x3e0870a5	0.1332422
49	0x3e50faba	0.20408145
50	0x3d700f2c	0.05860822
51	0x3dcbc9d8	0.09950608
52	0x3dd9fbf3	0.106437586
53	0x3edef950	0.43549585
54	0x3d636954	0.05552037
55	0x3daa8d71	0.08327759
56	0xbc819575	-0.015818337
57	0x3e4ff591	0.2030852
58	0x3ddba6b3	0.10725155
59	0xbdf8e9d3	-0.121539734
60	0xbc06b59a	-0.008222008
61	0xbdd0bcde	-0.101922736
62	0xbd651f9d	-0.055938352
63	0x3d408538	0.047002047
64	0x3de95d34	0.1139473
65	0xbdaf0de5	-0.08547572
66	0x3e15b8d9	0.14621295
67	0x3e2a9081	0.16656686
68	0xbd025230	-0.03181666
69	0x3ea50557	0.32230636
70	0x3d84ff74	0.06494036
71	0x3d6b281a	0.05741129
72	0x3e172760	0.14761114
73	0x3e2b9988	0.16757786
74	0x3d16eaa6	0.036844872
75	0x3db71da6	0.08941202
76	0x3c02a266	0.007973289
77	0xbd1db49a	-0.038502313
78	0x3de8e48d	0.113717176
79	0xbda6d949	-0.081469126
80	0xbe04fa59	-0.12986125
81	0x3e0c603c	0.13708586
82	0x3c03a0b5	0.008033921
83	0xbd63f875	-0.05565687
84	0xbd66a452	-0.05630905
85	0x3d5f91ab	0.05458228
86	0x3cd2a5b7	0.025713785
87	0x3b128d68	0.0022362117
88	0xbd29c332	-0.04144592
89	0xbeb2d85d	-0.34930697
90	0xbd555a0d	-0.052087832
91	0xbdd89b39	-0.10576481
92	0xbadb44b2	-0.0016728847
93	0x3e55d029	0.20880188
94	0xbd8ffa1e	-0.07030128
95	0xbd27df09	-0.040984187
96	0x3de38ae6	0.11110477
97	0x3ccab183	0.024742847
98	0xbd3038e0	-0.04302299
99	0x3e89ae28	0.26890683
100	0x3e5b0d43	0.21391778
101	0x3e426616	0.18984255
102	0x3c2d6b08	0.0105846
103	0x3e25ee90	0.16204286
104	0x3d15038e	0.036380343
105	0xbc86922e	-0.016427126
106	0x3e4f3832	0.2023628
107	0xbe033b72	-0.12815645
108	0xbdc3da22	-0.0956309
109	0xbcf2b8dd	-0.029629165
110	0xbe272b59	-0.1632513
111	0xbd8dc5bb	-0.0692248
112	0x3d8fbb21	0.07018114
113	0xbd58e4f2	-0.052952714
114	0x3e4ca6c1	0.19985487
115	0x3d1d446b	0.038395327
116	0xbe52f820	-0.20602465
117	0x3e4f4bb5	0.20243724
118	0xbde32574	-0.11091128
119	0xbe53dfb1	-0.206908
120	0xbd60a693	-0.054846358
121	0xbb2a5986	-0.0025993302
122	0x3dfa03ff	0.122077934
123	0xbd1a77d8	-0.03771195
124	0x3dda010b	0.1064473
125	0xbd1a5ec7	-0.037688043
126	0x3dd24a15	0.10268036
127	0xbdf3d35d	-0.11905549
128	0xbd228f29	-0.03968731
129	0x3dbd794b	0.092516504
130	0x3e1214d5	0.1426576
131	0x3d09b137	0.03361627
132	0x3dba1ca7	0.09087496
133	0x3dc960e8	0.098329365
134	0x3d588830	0.052864254
135	0xbd5815a3	-0.05275501
136	0xbe38d102	-0.1804848
137	0xbd0523a6	-0.0325047
138	0x3c7e14d4	0.0155078955
139	0xbdfcd426	-0.123451516
140	0x3de2342a	0.11045106
141	0x3c461f4e	0.012092425
142	0xbcda53f0	-0.026651353
143	0x3d3524cc	0.044224545
144	0x3dea2c0e	0.11434184
145	0x3e147fc6	0.14501867
146	0xbc9cb4c3	-0.019129163
147	0x3dc14b55	0.094381966
148	0x3e0565ae	0.13027069
149	0xbc931f26	-0.017959189
150	0xbd087e57	-0.033323612
151	0xbc01994a	-0.007910082
152	0x3e64ef24	0.2235685
153	0x3c197a94	0.009367604
154	0xbd756a16	-0.059915625
155	0x3d93cb00	0.072164536
156	0x3dc250ac	0.09488043
157	0x3e37579c	0.17904514
158	0x3df34c43	0.1187978
159	0x3c509c94	0.012732644
160	0x3e6f6c75	0.23381217
161	0x3e6db549	0.23213686
162	0xbbd3b693	-0.0064609735
163	0x3e4301b7	0.19043623
164	0x3dd12b08	0.10213286
165	0x3c3c4036	0.011489918
166	0x3e3a9ae7	0.18223153
167	0x3e1ea536	0.1549271
168	0x3dcc71d5	0.09982649
169	0xbde63d19	-0.11242122
170	0x39f14fb6	0.0004602649
171	0xbd236b4c	-0.03989725
172	0xbdd2083d	-0.102554776
173	0x3e8ea467	0.27859804
174	0xbdc6193c	-0.09672782
175	0xbda1fad3	-0.07909169
176	0x3e5feb65	0.2186714
177	0x3db6c87e	0.089249596
178	0xb93d686d	-0.00018063346
179	0x3e1bcfe9	0.1521603
180	0x3d20462f	0.039129432
181	0x3d74bd68	0.059750944
182	0x3dc4b4ea	0.09604819
183	0x3e221fb1	0.15832402
184	0x3da13fb9	0.07873482
185	0xbd8c3dc9	-0.06847722
186	0x3c41fd1f	0.011840134
187	0xbd295cf7	-0.041348424
188	0xbd10e59b	-0.03537522
189	0x3ebcd493	0.3688093
190	0x3d017aa2	0.031611092
191	0x3d88a660	0.066723585
192	0x3e03b990	0.12863755
193	0x3c9c0159	0.019043611
194	0x3d941e96	0.07232396
195	0x3deeec14	0.11666122
196	0x3de01c04	0.109428436
197	0x3c7414ae	0.014897509
198	0x3cd02f9e	0.02541333
199	0x3da45506	0.080240294
200	0x3e1fffcc	0.15624923
201	0x3d692090	0.05691582
202	0xbd3bd537	-0.045857634
203	0xbd8e03d0	-0.06934321
204	0x3df0db70	0.117606044
205	0x3ea49831	0.32147363
206	0x3d877990	0.06614983
207	0xbb71536c	-0.0036823405
208	0x3e2e4bc8	0.17021096
209	0x3db00cbc	0.08596179
210	0x3be25b40	0.0069078505
211	0x3e9001f4	0.2812649
212	0x3e4d8792	0.20071247
213	0xbcb40ee6	-0.02197976
214	0xbc677f19	-0.014129424
215	0x3ce59f67	0.02803011
216	0x3e299f08	0.16564572
217	0xbd9c9fe5	-0.07647685
218	0xbbb0e953	-0.005398908
219	0xbd546bb3	-0.051860522
220	0x3d3a53d1	0.04549009
221	0x3eae0e0c	0.33995092
222	0xbdd57ad9	-0.10423822
223	0xbd9d3ac1	-0.07677222
224	0x3d763edc	0.06011854
225	0x3e7d82cf	0.24756931
226	0xbc861560	-0.016367614
227	0x3e9248ea	0.28571254
228	0x3c2ba90b	0.010477315
229	0x3e4cb573	0.19991092
230	0xbd082d81	-0.03324652
231	0x3e0ebc6c	0.13939065
232	0x3d8dabc3	0.069175266
233	0x3d62397d	0.055230606
234	0x3d88c948	0.06679016
235	0xbcb4b407	-0.0220585
236	0xbd9c9787	-0.07646089
237	0x3e7f93e7	0.24958764
238	0xbda7945f	-0.081825964
239	0x3d2119de	0.03933131
240	0x3e35df33	0.17760925
241	0x3d8808aa	0.066422775
242	0xbd604488	-0.054752856
243	0x3d3c280a	0.04593662
244	0x3d91a2f6	0.071111605
245	0x3e50adb8	0.20378768
246	0x3dc9e297	0.09857672
247	0x3bbbb24b	0.0057280413
248	0x3d80bacc	0.06285629
249	0xbda325b5	-0.079661764
250	0xbd246ad4	-0.04014094
251	0x3d7c87ef	0.061653074
252	0x3cbe7b12	0.023252044
253	0xbc579e76	-0.013160339
254	0x3decc5aa	0.11561139
255	0x3c3c027c	0.011475202

sequential/conv2d_2/Conv2D f4 [16, 3, 3, 32]
0	0xbe11fb3d	-0.14255996
1	0xbd926e46	-0.07149939
2	0x3d904988	0.07045275
3	0xbdc436d2	-0.09580769
4	0x3db9137f	0.09036922
5	0x3c1940af	0.009353801
6	0xbd1453c8	-0.036212713
7	0xbd771bfd	-0.060329426
8	0xbe06b7e7	-0.1315609
9	0xbc8c616c	-0.017136298
10	0xbd7a24e4	-0.061070338
11	0xbe00be9b	-0.1257271
12	0xbd9de483	-0.07709601
13	0x3a5f47a6	0.00085174514
14	0xbdff4401	-0.124641426
15	0x3d8c2208	0.068424284
16	0xbdd29abe	-0.10283421
17	0x3d518329	0.051150475
18	0xbcc90cec	-0.024542294
19	0x3c1e3858	0.009656988
20	0xbe051c80	-0.12999153
21	0xbd8526e2	-0.06501557
22	0xbd9d2d90	-0.07674706
23	0x3d3bdc24	0.04586424
24	0x3dd60d3d	0.10451744
25	0x3dd816d8	0.10551232
26	0xbdf1af7a	-0.118010476
27	0xbdd9c127	-0.10632544
28	0xbda60ff0	-0.081085086
29	0x3cbb9a6d	0.022900784
30	0x3c8eee6c	0.017447673
31	0xbcf59262	-0.029977027
32	0xbcbed0eb	-0.02329298
33	0x3d1de15b	0.038544994
34	0x3d803e67	0.06261902
35	0x3c9a0e94	0.01880578
36	0x3dc8e505	0.09809307
37	0xbdbe2074	-0.09283534
38	0xbcb0ea30	-0.021596044
39	0xbdf089de	-0.11745046
40	0x3da135ac	0.07871565
41	0xbd7400e1	-0.05957115
42	0xbb41cf75	-0.0029573117
43	0xbd0a4959	-0.033761356
44	0x3cfd27ac	0.030902706
45	0xbe072c45	-0.13200481
46	0x3dbc6b7a	0.09200187
47	0x3cc04e1e	0.02347475
48	0xbd7b3902	-0.061333664
49	0xbda4d0c9	-0.08047635
50	0x3ddd76d5	0.10813681
51	0x3d5e45e2	0.054265864
52	0x3d47477f	0.04865217
53	0xbd670267	-0.056398775
54	0xbde208f4	-0.11036864
55	0xbc9878cc	-0.018612288
56	0x3cfb543c	0.030679815
57	0xbd084b2c	-0.033274814
58	0xbd2e2281	-0.042513374
59	0x3da21eed	0.07916055
60	0x3dbf46f7	0.09339707
61	0x3d1895c2	0.037252195
62	0xbd857924	-0.06517246
63	0xbd5ac127	-0.05340686
64	0x3c0841d1	0.008316473
65	0xbd5d3ed6	-0.054015003
66	0xbdddecb2	-0.10836162
67	0xbd8c9474	-0.06864253
68	0xbdd0e431	-0.10199774
69	0x3d075c06	0.033046745
70	0x3b0f73e0	0.0021889135
71	0xbe02297b	-0.12711136
72	0xbd38179f	-0.0449444
73	0xbd47956b	-0.04872648
74	0xbd8f6766	-0.070021436
75	0x3d4935c3	0.049123537
76	0xbd068bc8	-0.03284815
77	0xbe00b3f4	-0.12568647
78	0x3db43f1d	0.088011004
79	0xbda16dca	-0.07882269
80	0xbdb655d3	-0.089030884
81	0x3d027543	0.03185011
82	0x3ce37ff4	0.027770974
83	0xbd8107d1	-0.06300319
84	0xbdbb1e1a	-0.09136601
85	0x3d1a07c3	0.03760506
86	0xbdc297b7	-0.095015936
87	0xbde7ae8b	-0.11312588
88	0xbd954f54	-0.07290521
89	0x3d153c2a	0.03643433
90	0xbdb9a03f	-0.09063768
91	0x3c230cff	0.009951829
92	0xbd93d916	-0.0721914
93	0x3dc7a9bf	0.097491734
94	0x3d52287e	0.051308148
95	0xbd07cba4	-0.03315319
96	0xbda22d16	-0.07918756
97	0x3cf3318f	0.029686717
98	0xbc4dcd9d	-0.012561229
99	0x3db3f871	0.08787621
100	0x3dcf2998	0.10115355
101	0x3d53ee06	0.05174067
102	0x3d4f30ee	0.050583772
103	0x3d82910d	0.063753225
104	0xbdd9669d	-0.10615275
105	0xbd2cc847	-0.042183187
106	0x3cdce2c7	0.026963605
107	0xbdc0be80	-0.09411335
108	0xbdbaf4f2	-0.09128751
109	0xbac3a30f	-0.0014925915
110	0xbd06d45b	-0.03291736
111	0x3da8ff8d	0.082518674
112	0xbdbde2e0	-0.092717886
113	0xbd8ac956	-0.06776683
114	0x3d388b27	0.04505458
115	0xba8d4800	-0.0010778904
116	0xbd559f12	-0.052153654
117	0xbd1f6480	-0.038914204
118	0x3dc5bf80	0.09655666
119	0xbcbc5dcb	-0.022993943
120	0xbdeba403	-0.11505892
121	0x3d940796	0.072280094
122	0x3af92a6f	0.0019009839
123	0xbd2fc8a1	-0.042915944
124	0x3d0accbe	0.033886664
125	0x3d9e5c75	0.077324785
126	0xbd38fff3	-0.045165967
127	0x3ccf0524	0.025271006
128	0x3da929be	0.08259915
129	0x3dd815ff	0.105510704
130	0xbb234491	-0.0024912695
131	0xbda8dc62	-0.0824516
132	0x3d95efb0	0.073211074
133	0xbd9e8af0	-0.07741344
134	0xbdaa4bc9	-0.08315236
135	0x3dd92a6f	0.10603797
136	0x3d8f966a	0.07011111
137	0x3db6d849	0.08927972
138	0xbcd8292e	-0.026386824
139	0xbdca9684	-0.0989199
140	0xbde99bfe	-0.11406706
141	0x3db22926	0.08699255
142	0x3d46cbb9	0.04853413
143	0xbd1f8df6	-0.038953744
144	0xbda050ad	-0.07827888
145	0xbde57db6	-0.11205618
146	0xbcecda58	-0.028912708
147	0xbd9bfb8b	-0.076163374
148	0x3c9f89bf	0.019474862
149	0x3db0581b	0.08610555
150	0x3daf5b48	0.085623324
151	0xbd602748	-0.05472496
152	0x3db08c39	0.08620495
153	0xbd800726	-0.062513635
154	0xbd037225	-0.03209128
155	0xbccd4e1a	-0.025061656
156	0x3c85385c	0.016262226
157	0x3d9e6144	0.07733396
158	0xbdc06e3b	-0.09396025
159	0x3dc65265	0.09683684
160	0x3d03bc29	0.032161865
161	0x3db3504d	0.087555505
162	0xbdae2b55	-0.08504359
163	0xbd803a6a	-0.062611416
164	0xbd6f1ea2	-0.058378823
165	0xbde956a2	-0.11393477
166	0xbd9c1d1e	-0.07622741
167	0xbdb5de9e	-0.088803515
168	0xbd0cbed7	-0.034361687
169	0x3d77971e	0.06044685
170	0x3d42790c	0.04747872
171	0xbd66edb9	-0.056379054
172	0x3c32d24f	0.010914399
173	0xbda1d721	-0.07902361
174	0x3d5abb9b	0.05340157
175	0xbd605ad8	-0.054774135
176	0xbd41a117	-0.047272768
177	0x3c4cbb3b	0.012495811
178	0xbddc2ff2	-0.10751332
179	0xbc3a15e8	-0.011357762
180	0xbcf3fba9	-0.029783087
181	0x3d10c806	0.035347007
182	0xbdc90df6	-0.09817116
183	0xbde68522	-0.11255862
184	0xbc7cda8d	-0.015432966
185	0xbdfb8bc6	-0.12282519
186	0x3d1cffcf	0.038329896
187	0xbd244ba8	-0.040111214
188	0xbdb47e03	-0.08813097
189	0xbdca417f	-0.09875774
190	0xbd7aeed3	-0.061262917
191	0x3d2525cc	0.04031925
192	0xbcbc3263	-0.022973245
193	0xbdc07e06	-0.09399037
194	0x3cfba618	0.030718848
195	0xbdaf6723	-0.08564594
196	0x3c8c5617	0.017130895
197	0xbba7950b	-0.005114203
198	0x3d97bbe1	0.07408882
199	0xbdb94c54	-0.090477616
200	0x3dbb945a	0.09159155
201	0xbdc2a0a5	-0.09503297
202	0x3db5afee	0.088714465
203	0xbdc83dc1	-0.097774036
204	0xbce29266	-0.027657699
205	0x3a8befbc	0.0010676305
206	0xbe00a9a5	-0.12564714
207	0xbdea59e6	-0.11442928
208	0xbdcb973e	-0.099409565
209	0x3c3c3b56	0.011488756
210	0x3d52d552	0.05147297
211	0xbca2b400	-0.019861221
212	0xbd6cd970	-0.057824552
213	0xbdabbf8f	-0.08386146
214	0xbd602734	-0.054724887
215	0x3d9bed71	0.07613648
216	0xbe0d61bf	-0.13806818
217	0xbdaf3ff9	-0.08557124
218	0xbd47fea1	-0.048826817
219	0x3d652c09	0.0559502
220	0x3d4d6d82	0.050153263
221	0xbb365e46	-0.0027827187
222	0xbd394838	-0.04523489
223	0x3cd05b6d	0.02543422
224	0xbd49cbbf	-0.049266573
225	0x3cf12baf	0.029439775
226	0x3d3ed6f8	0.04659173
227	0x3c770478	0.015076749
228	0x3d81ab98	0.06331557
229	0x3c60cffd	0.013721463
230	0xbdaf4550	-0.08558142
231	0x3d848ab7	0.0647177
232	0xbdc134b9	-0.09433884
233	0x3dad4890	0.08461106
234	0x3c59f17e	0.013302205
235	0xbdb6b67c	-0.08921525
236	0xbcaa5d19	-0.020796346
237	0x3d294448	0.041324884
238	0x3d6599f8	0.05605504
239	0x3dca0a3d	0.09865234
240	0x3d620665	0.05518188
241	0xbdbda693	-0.09260287
242	0xbdc2ad94	-0.09505764
243	0xbc138ef0	-0.009006247
244	0xbbe1dd5f	-0.0068928446
245	0x3d4a2f85	0.049361724
246	0xbded6ac9	-0.11592633
247	0x3d9b507e	0.07583712
248	0xbe086fe1	-0.13323928
249	0xbdabf0c5	-0.083955325
250	0x3d8e14fd	0.06937597
251	0xbafd67ae	-0.0019333267
252	0xbdc3910c	-0.0954915
253	0x3c05f17a	0.008175248
254	0xbda657f7	-0.08122247
255	0xbe049098	-0.12945783

sequential/dense/BiasAdd/ReadVariableOp f4 [128]
0	0xbc5c0af4	-0.013430346
1	0xbcb8f685	-0.022578487
2	0xbd84e924	-0.064897805
3	0xbc84c275	-0.016206006
4	0x3d9b3789	0.07578952
5	0x3d9ab1f0	0.0755347
6	0xbc425e05	-0.011863236
7	0x3d509714	0.05092533
8	0xbc2abfc4	-0.010421697
9	0xbd16452c	-0.03668706
10	0xbc89f4bb	-0.01684033
11	0xbbbef4c1	-0.005827517
12	0xbd8d274f	-0.06892263
13	0xbd16ce17	-0.036817636
14	0xbd8654e4	-0.0655916
15	0xbd0205d9	-0.031743858
16	0xba139519	-0.0005629822
17	0xbd296655	-0.041357357
18	0xbce22a9d	-0.02760821
19	0x3ce47d09	0.027891653
20	0xbbc7791c	-0.0060874354
21	0x3d95d445	0.07315878
22	0x3dbe228a	0.092839316
23	0xbc2a2889	-0.010385641
24	0x3d471071	0.048599664
25	0xbcb0675c	-0.02153366
26	0x3c86e0de	0.016464647
27	0x3dff24f0	0.12458217
28	0xbd06ecfe	-0.032940857
29	0xbd035b21	-0.03206933
30	0xbc351b8e	-0.011053933
31	0x3ce9dadf	0.028546749
32	0xbcecad03	-0.028891092
33	0x3d46d135	0.04853936
34	0x3c6801f2	0.01416062
35	0xbc6e7ae8	-0.01455567
36	0xbced8e35	-0.028998474
37	0xbc89eaad	-0.016835535
38	0xbc6ab7c8	-0.014326043
39	0x3d2a4364	0.041568175
40	0x00000000	0.0
41	0xbc5a9a11	-0.013342396
42	0xbcadb17f	-0.0212028
43	0xbc6542ab	-0.013992946
44	0xbbd57bfc	-0.006515024
45	0xbc871198	-0.016487882
46	0xbc5baef7	-0.013408414
47	0x00000000	0.0
48	0xbcb2dec6	-0.021834742
49	0xbbc61745	-0.0060452544
50	0x3c9fb3d3	0.019494927
51	0x3bfe1a89	0.007754628
52	0xbcdcd850	-0.026958615
53	0x3c6854d2	0.014180379
54	0xbc17dd4e	-0.009269072
55	0x3b019af9	0.0019776209
56	0x3d4e36ea	0.05034534
57	0xbc94efc3	-0.018180734
58	0x3cff891e	0.031193312
59	0xbcbe3145	-0.023216853
60	0xbc04577b	-0.008077498
61	0xbd54d2c3	-0.05195881
62	0xbc923ff9	-0.01785277
63	0xbc2c3615	-0.010510941
64	0x3cd6ccf1	0.02622077
65	0xbc865406	-0.016397487
66	0xbd531ce8	-0.05154124
67	0x3ccdc195	0.025116721
68	0x3d923ac6	0.071401164
69	0xbdd05c14	-0.101738125
70	0x3c34c0b4	0.011032272
71	0xbd075bd6	-0.033046566
72	0x00000000	0.0
73	0xbd7d0781	-0.061774734
74	0xbd2489d0	-0.04017049
75	0xbd222c97	-0.039593305
76	0x3da076df	0.07835173
77	0x3d2cb482	0.042164333
78	0xbd514e35	-0.051099975
79	0xbd1b0188	-0.037843257
80	0x3de03971	0.10948456
81	0x3d3d6c6f	0.04624599
82	0xbd0a3ef8	-0.033751458
83	0xbc4a67b8	-0.01235383
84	0xbc98a5db	-0.018633774
85	0xbc3e0120	-0.011596948
86	0x3d919b95	0.07109753
87	0xbd13a1d9	-0.03604302
88	0x3d778907	0.060433414
89	0xbcf87d8a	-0.0303333
90	0xbc218ad1	-0.009859757
91	0x3ab2ea25	0.0013650103
92	0x3dbd3d75	0.092402376
93	0xbd0704d6	-0.032963596
94	0xbc6bd25d	-0.014393416
95	0x3dcb9ec8	0.099423945
96	0xbd0a70f4	-0.033799127
97	0xbbb617ff	-0.00555706
98	0x3d17fa14	0.037103727
99	0x3d1b8013	0.037963938
100	0x3d7154e7	0.05891886
101	0xbd0c64ee	-0.03427594
102	0xbc67bd28	-0.014144219
103	0xbd5f5cad	-0.054531742
104	0xbc945880	-0.018108606
105	0xbc3c3114	-0.0114863105
106	0xbc932236	-0.017960649
107	0xbd616bfe	-0.05503463
108	0xbc7c2215	-0.015388985
109	0xbcced2ec	-0.02524706
110	0xbca82f13	-0.02053026
111	0x3d9f047a	0.07764526
112	0x00000000	0.0
113	0xbd0e640e	-0.03476339
114	0xbc55b0ee	-0.013042672
115	0x3d0f7998	0.03502807
116	0xbd0dcaa3	-0.034617078
117	0xbc0f93ec	-0.008763295
118	0xbcdcf6fe	-0.026973244
119	0xbd15e0f8	-0.0365915
120	0x3c569753	0.013097602
121	0x3db6006e	0.08886801
122	0x3bc45730	0.005991839
123	0xbc1b5e80	-0.00948298
124	0xbc64c98f	-0.013964071
125	0x3d411adb	0.047144752
126	0xbc3a2097	-0.011360309
127	0xbce3fc39	-0.02783023

sequential/dense_1/BiasAdd/ReadVariableOp f4 [4]
0	0xbcfbbd57	-0.030729933
1	0x3c8afb52	0.016965542
2	0x3d5e92d7	0.054339256
3	0xbd40d3a8	-0.04707685

sequential/dense/MatMul f4 [128, 160]
0	0xbdd7a22d	-0.105289795
1	0x3c59d443	0.013295236
2	0x3df9fb60	0.12206149
3	0x3dbd02e0	0.09229064
4	0xbe117a8a	-0.14206901
5	0xbd3dd56a	-0.046346106
6	0xbdce5270	-0.100743175
7	0xbcd1492e	-0.02554759
8	0x3d7d2d1d	0.0618106
9	0x3dd3c5be	0.10340451
10	0x3cbe3213	0.023217237
11	0xbd4afbc3	-0.049556505
12	0xbe08bd00	-0.13353348
13	0xbe32a537	-0.17445837
14	0x3ddae01b	0.10687276
15	0x3dbaa710	0.09113896
16	0x3e105979	0.14096631
17	0xbde39c94	-0.11113849
18	0x3db945c6	0.09046511
19	0x3e0e040b	0.1386873
20	0x3df61dac	0.12017378
21	0xbbcab5a0	-0.006186202
22	0xbe064256	-0.13111243
23	0xbdf7730a	-0.12082489
24	0x3e07508e	0.13214323
25	0xbdee4272	-0.11633767
26	0xbdecf1c0	-0.11569548
27	0x3d7f0ccb	0.06226806
28	0x3de51084	0.11184791
29	0xbde6f576	-0.11277287
30	0x3dfb90e1	0.12283493
31	0x3de63c10	0.11241925
32	0x3e2184f4	0.15773374
33	0xbcaed7e7	-0.021343185
34	0xbd11f1ec	-0.035631105
35	0x3de23389	0.11044986
36	0xbc549b44	-0.012976471
37	0x3ddffcd4	0.10936895
38	0xbcdd315c	-0.027001075
39	0x3dfdbcb5	0.12389509
40	0xbd6a58f9	-0.057213757
41	0x3c895b89	0.01676728
42	0xbda7d7b8	-0.08195442
43	0x3b5d84f3	0.0033801168
44	0x3d9db62c	0.07700762
45	0x3d94a59f	0.07258152
46	0x3dc6b57e	0.09702586
47	0x3d89fdc3	0.06737854
48	0xbc2699fe	-0.010168551
49	0xbd8c65a0	-0.06855321
50	0x3aba4480	0.0014211088
51	0xbd668037	-0.05627462
52	0xbdc01982	-0.09379865
53	0xbc412260	-0.011787981
54	0xbd3742b0	-0.044741333
55	0x3d14a112	0.03628642
56	0xbda2d88e	-0.07951461
57	0x3db045b6	0.08607046
58	0xbe0bf5ea	-0.13668028
59	0x3c1899dd	0.009314028
60	0x3dd110a0	0.10208249
61	0xbe250754	-0.16116077
62	0x3df4febe	0.11962651
63	0x3d872da9	0.06600506
64	0xbb6163be	-0.0034391726
65	0xbd203d1a	-0.03912077
66	0xbd6edb54	-0.058314636
67	0xbe1323ea	-0.14369169
68	0xbd280b9b	-0.041026693
69	0x3d4f1fa2	0.050567277
70	0x3d8149d0	0.06312907
71	0xbd4f43d3	-0.05060179
72	0xbe2a39ca	-0.16623607
73	0x3d75f0aa	0.06004397
74	0x3ca22900	0.019794941
75	0xbdbdb8a6	-0.092637345
76	0xbdeee725	-0.11665181
77	0xbe3d1de1	-0.18468429
78	0xbda70ab8	-0.08156341
79	0xbd2fee11	-0.042951647
80	0xbce96dda	-0.028494764
81	0x3de203a8	0.110358536
82	0x3cf48148	0.029846802
83	0x3d23b50a	0.039967574
84	0x3dee9dec	0.11651215
85	0x3b9d1420	0.004793659
86	0xbcd9750c	-0.02654507
87	0xbda8b346	-0.08237319
88	0x3e2d211e	0.16907164
89	0xbc65a4ab	-0.014016311
90	0x3e0685b8	0.13136947
91	0x3d32ab70	0.043620527
92	0x3d10e9e4	0.035379305
93	0x3e2771a8	0.1635195
94	0x3c6ebddc	0.014571633
95	0x3e079e12	0.13243893
96	0xbd61fe2e	-0.055174045
97	0x3db2348f	0.08701431
98	0x3dfb631c	0.12274763
99	0xbdc44848	-0.09584099
100	0x3ddc1684	0.10746482
101	0x3db2c664	0.08729246
102	0xbd11fe56	-0.035642944
103	0x3c41a8bd	0.0118200155
104	0xbd9550fc	-0.07290837
105	0x3e1fc21d	0.15601392
106	0x3e05986d	0.13046427
107	0xbdc43086	-0.095795676
108	0xbddbaadd	-0.10725949
109	0x3e27a0d6	0.16369948
110	0x3e1b27f8	0.15151966
111	0x3d8ecb38	0.06972355
112	0x3d679ac7	0.05654409
113	0xbc46bee1	-0.01213047
114	0xbdd0028c	-0.10156736
115	0xbd93d0fb	-0.07217594
116	0x3db3f104	0.087862045
117	0x3d3a5440	0.045490503
118	0x3ca850d0	0.020546347
119	0xbdbdb21a	-0.09262486
120	0x3d950bc8	0.07277638
121	0xbdb65092	-0.08902086
122	0x3d409904	0.047020927
123	0xbd30fd4b	-0.04321031
124	0x3ce01280	0.027352571
125	0x3e337d1c	0.17528194
126	0x3d9a5c66	0.07537155
127	0xbdef2b99	-0.116782375
128	0xbc385e7c	-0.011252996
129	0x3d8c2a8c	0.06844053
130	0x3d566bb0	0.052348793
131	0xbb869966	-0.004107642
132	0xbe111c9e	-0.14171073
133	0xbc9127a0	-0.01771909
134	0xbd4f4fbc	-0.05061315
135	0xbda9dc11	-0.082939275
136	0xbd210fc3	-0.039321672
137	0x3da423e8	0.08014661
138	0x3cb9adad	0.022665823
139	0xbd35e069	-0.044403467
140	0x3cdf5e90	0.02726677
141	0x3d47d4a8	0.04878679
142	0x3d78d37e	0.06074857
143	0xbc3d5e6b	-0.0115581555
144	0xbde943bb	-0.11389872
145	0x3e153bd5	0.14573605
146	0xbd491f0c	-0.049101874
147	0xbd9bb1a5	-0.076022424
148	0x3d17ed63	0.037091624
149	0xbe13b9c0	-0.14426327
150	0x3d79bf98	0.060973734
151	0xbcd58ea5	-0.026068995
152	0x3d9bfa14	0.07616058
153	0xbbb9ee11	-0.0056741317
154	0xbe0bbbff	-0.13645934
155	0x3e2116ca	0.1573135
156	0xbc6f1f70	-0.014594898
157	0xbdb80706	-0.089857146
158	0x3d6f9a74	0.058496907
159	0x3d8d4c6e	0.068993434
160	0xbd8f744e	-0.07004605
161	0xbcff946a	-0.031198699
162	0x3daba7c6	0.083816096
163	0x3d8b7185	0.068087615
164	0xbd84a059	-0.064758964
165	0x3d890710	0.066908
166	0xbd85519c	-0.065097064
167	0xbddd9cd0	-0.10820925
168	0xbd9bfa4f	-0.07616102
169	0xbc0e4e2d	-0.008685631
170	0x3de671f7	0.11252206
171	0xbde8ee5f	-0.11373591
172	0xbcc22430	-0.023698896
173	0xbe3e6bc1	-0.18595792
174	0xbe165603	-0.14681248
175	0xbd007272	-0.031359144
176	0x3d821074	0.063507944
177	0x3d1b4096	0.03790339
178	0xbdb22ce8	-0.086999714
179	0xbcc54780	-0.024081945
180	0x3dc11359	0.094275184
181	0x3e0744c4	0.13209826
182	0x3e131a0a	0.14365402
183	0x3cfc954a	0.030832905
184	0x3d90d19f	0.07071232
185	0x3d93c3f0	0.072151065
186	0x3cb702df	0.022340236
187	0xbde195f2	-0.11014928
188	0xbda1399e	-0.07872318
189	0x3e410824	0.18850762
190	0x3c8013c0	0.015634418
191	0xbe094e24	-0.13408715
192	0xbd69621b	-0.056978326
193	0x3c113dbf	0.008864819
194	0x3de76658	0.112988174
195	0x3dd8e9ca	0.10591467
196	0xbdb76b51	-0.08956016
197	0xbbd37de0	-0.0064542145
198	0x3c950ab0	0.018193573
199	0x3dd282fd	0.1027889
200	0x3e06757c	0.13130754
201	0x3ddb9ae3	0.10722902
202	0x3dac4b8d	0.08412848
203	0xbdbca8b9	-0.09211869
204	0xbd82a151	-0.06378425
205	0xbd7ebfea	-0.062194742
206	0xbe154b13	-0.1457942
207	0x3e03aec4	0.12859637
208	0xbd5310ea	-0.051529802
209	0x3d9c7eb0	0.07641351
210	0xbdc9726b	-0.098362766
211	0xbdd35bf4	-0.10320273
212	0x3df10432	0.11768378
213	0xbd2bb060	-0.04191625
214	0x3d6644a8	0.05621782
215	0x3e15931e	0.14606902
216	0x3c645455	0.013936122
217	0xbd47636b	-0.048678797
218	0x3cd6169e	0.026133832
219	0xbdc780e2	-0.09741379
220	0xbe1174eb	-0.14204757
221	0x3e07ec05	0.13273628
222	0x3dd4eb29	0.10396416
223	0x3d0bfaba	0.03417466
224	0x3cc7126e	0.02430078
225	0xbd681461	-0.05666006
226	0x3d61d2b7	0.055132594
227	0xbe16ca05	-0.14725502
228	0xbd8d05f1	-0.06885899
229	0xbaf54c00	-0.0018714666
230	0x3ddd3fc0	0.10803175
231	0x3dde7f74	0.108641535
232	0xbd3ae96a	-0.045632757
233	0x3dcbd1dc	0.09952137
234	0xbd7eeb69	-0.062236223
235	0x3b8f9948	0.004382286
236	0x3dae1a36	0.08501093
237	0xbc4d6d27	-0.012538231
238	0xbb2da30a	-0.0026494884
239	0x3e06adf2	0.13152292
240	0xbdd65dc5	-0.10467104
241	0xbdbcb49e	-0.092141375
242	0x3d93b69e	0.07212566
243	0xbe24dec5	-0.16100605
244	0x3d0cf568	0.034413725
245	0xbe0e6433	-0.1390541
246	0xbd6b701e	-0.05747997
247	0xbd563c31	-0.052303497
248	0xbe3ac32b	-0.18238513
249	0x3d759d86	0.05996468
250	0x3d5ab9b4	0.053399757
251	0xbe039599	-0.12850036
252	0xbc03c3d0	-0.008042291
253	0xbe375b5b	-0.17905943
254	0xbbc6b53d	-0.0060640858
255	0x3dfa351c	0.12217161

sequential/dense_1/MatMul f4 [4, 128]
0	0x3e1d0375	0.1533335
1	0xbe0f785e	-0.1401076
2	0x3ea0b9b6	0.31391686
3	0x3e0b86fc	0.13625711
4	0x3d0e0223	0.034670006
5	0xbd29f76a	-0.041495718
6	0xbd836396	-0.06415479
7	0x3ceb5653	0.028727686
8	0xbe3a1bc5	-0.18174656
9	0xbdea85d9	-0.11451311
10	0xbe4268c8	-0.18985283
11	0x3dda0e21	0.10647226
12	0x3dbd7347	0.09250503
13	0x3deb7558	0.11496991
14	0x3e440b3e	0.19144914
15	0xbcb79990	-0.022412091
16	0xbd9dfdb7	-0.07714408
17	0x3dbc0da2	0.09182288
18	0x3e086817	0.13320957
19	0xbdaa3f1d	-0.08312819
20	0x3e0c0c11	0.13676478
21	0x3e035cdf	0.12828396
22	0x3d06e5f9	0.032934163
23	0xbdff8774	-0.124770075
24	0x3da7ce56	0.08193652
25	0xbe2d8379	-0.16944684
26	0xbe0e73a2	-0.13911298
27	0x3dcada22	0.09904887
28	0xbddcf91d	-0.10789702
29	0x3e51378a	0.20431343
30	0xbe172fea	-0.14764372
31	0x3d64d2dc	0.055865154
32	0x3e2f1136	0.17096409
33	0xbe297be4	-0.16551167
34	0xbe028c70	-0.12748885
35	0x3e2a4423	0.16627555
36	0x3dbd2026	0.092346475
37	0x3df3ed02	0.1191044
38	0x3cf3c591	0.029757293
39	0xbbb81fed	-0.00561904
40	0x3d285528	0.041096836
41	0xbdf5f81c	-0.12010214
42	0x3e36b104	0.17840964
43	0x3d784424	0.06061186
44	0xbe26c2ba	-0.1628522
45	0xbe2d60cb	-0.16931455
46	0xbe120f1b	-0.14263575
47	0x3e54057a	0.20705214
48	0x3e633b7c	0.2219066
49	0x3e314819	0.1731266
50	0x3d92571a	0.071455196
51	0x3e061863	0.1309524
52	0xbe289729	-0.16463913
53	0x3d7de44a	0.06198529
54	0x3dcb303a	0.09921308
55	0x3d464cf5	0.048413236
56	0x3d30e642	0.04318834
57	0x3d8febc9	0.07027394
58	0xbe1feeef	-0.1561849
59	0xbd8b9787	-0.06816011
60	0xbe1477ea	-0.14498869
61	0xbd93916c	-0.072054714
62	0xbdc18cb9	-0.09450669
63	0x3d9afc83	0.07567694
64	0xbdc1a5c5	-0.09455446
65	0x3dd1b260	0.102391005
66	0x3e0ed003	0.13946538
67	0x3e0528f1	0.13003899
68	0xbd4587db	-0.048225265
69	0x3cf9716e	0.030449595
70	0x3e55a341	0.20863058
71	0xbe47c994	-0.1951049
72	0x3e20c178	0.15698802
73	0x3e5acf95	0.21368249
74	0x3e3b6547	0.18300353
75	0x3d1aa4dd	0.037754882
76	0x3daf6fe0	0.0856626
77	0x3ddb4abd	0.107076146
78	0x3da902d7	0.08252495
79	0x3e252709	0.16128172
80	0xbd71be19	-0.059019182
81	0xbcf00a15	-0.029301682
82	0x3d9eb475	0.07749263
83	0x3dce242a	0.100654915
84	0xbd4c9b3b	-0.049952727
85	0x3c385ab6	0.011252096
86	0xbe649e74	-0.2232607
87	0xbd6262ea	-0.055270113
88	0xbe52ca4c	-0.20584983
89	0x3c04e951	0.008112268
90	0x3d2066c3	0.0391605
91	0x3c485924	0.012228284
92	0xbd0fc017	-0.0350953
93	0x3bb678b1	0.0055685868
94	0xbd8bdfd1	-0.06829799
95	0x3c97e89c	0.018543534
96	0xbc3b1c65	-0.011420344
97	0xbd78fc0a	-0.06078724
98	0x3e330e17	0.17485844
99	0xbca8c603	-0.020602232
100	0xbce16cf9	-0.027517783
101	0xbe233fcc	-0.15942305
102	0x3bc6a9c9	0.0060627204
103	0x3d706778	0.058692425
104	0xbe41b1b4	-0.18915445
105	0xbd4c7d68	-0.049924284
106	0x3e38a438	0.18031394
107	0x3e3db8fc	0.18527597
108	0xbe1a95ae	-0.15096161
109	0xbe0f6fa1	-0.14007427
110	0xbe444323	-0.19166236
111	0xbc771c97	-0.0150825
112	0xbd3cb150	-0.046067536
113	0x3e467b97	0.19383083
114	0x3d547b20	0.051875234
115	0x3e06a89e	0.1315026
116	0x3dbb471f	0.09144425
117	0xbdaef9d0	-0.08543742
118	0x3e04e769	0.12978901
119	0x3e71451c	0.2356152
120	0x3d2eef96	0.042708956
121	0x3d2c7e6e	0.04211276
122	0x3e4f0537	0.20216833
123	0xbe3a7c15	-0.18211396
124	0xbe1f50f4	-0.15558225
125	0xbb982f58	-0.0046443157
126	0xbe046420	-0.1292882
127	0x3e7310dd	0.23736902
128	0x3dc15696	0.09440343
129	0xbe28fd1e	-0.16502807
130	0x3d92fb40	0.071768284
131	0xbdff98d3	-0.12480321
132	0x3d8a0f90	0.067412496
133	0xbe09e69f	-0.13466881
134	0x3e1156a1	0.14193203
135	0x3e34a21b	0.17639963
136	0xbdd95c8f	-0.10613357
137	0xbe5bfe69	-0.21483769
138	0xbd4b6d8d	-0.049665023
139	0xbb8c9174	-0.0042898003
140	0xbc9b2dff	-0.018942831
141	0x3cc2712d	0.023735607
142	0x3d31ea4b	0.04343633
143	0xbde84f33	-0.11343231
144	0x3db201e5	0.086917676
145	0xbdeb6478	-0.11493772
146	0x3cf6b932	0.030117605
147	0x3e60c25a	0.21949139
148	0x3e3a7994	0.18210441
149	0xbe77e13e	-0.24207017
150	0x3e5e62ce	0.21717378
151	0x3d96c0f9	0.07361025
152	0xbe14635f	-0.14491032
153	0xbe08f311	-0.13373972
154	0x3ece6356	0.40310162
155	0x3e28a162	0.16467813
156	0xbe17fad3	-0.14841776
157	0xbd75dfed	-0.060028005
158	0xbe4abdf8	-0.1979903
159	0xbf0f06d1	-0.55869776
160	0x3b5e9394	0.0033962475
161	0x3d9a3660	0.075299025
162	0x3e10b797	0.14132534
163	0x3d34c825	0.044136185
164	0xbdcdbdf6	-0.10045998
165	0xbc9df722	-0.019282881
166	0x3e42389d	0.18966909
167	0xbe2a1c21	-0.16612293
168	0x3e49b54c	0.19698066
169	0xbe06617a	-0.13123122
170	0x3e2460e5	0.16052587
171	0x3da41c7f	0.08013248
172	0x3dddc963	0.10829427
173	0x3d6c5ace	0.057703786
174	0xbe3e2c3f	-0.18571566
175	0x3dd77ea0	0.10522199
176	0xbe1f2cc5	-0.15544422
177	0x3d327231	0.043565933
178	0xbdf590b1	-0.11990488
179	0x3d4bf3cd	0.049793053
180	0x3e44f306	0.19233331
181	0xbd4b172a	-0.049582638
182	0x3e2daf12	0.16961315
183	0x3dd3dee6	0.10345249
184	0x3e53c30e	0.20679876
185	0x3da508b0	0.08058298
186	0x3e191649	0.14949907
187	0x3de09613	0.109661244
188	0xbd2414db	-0.04005895
189	0xbeac8b64	-0.33700097
190	0xbd078456	-0.03308519
191	0xbe19575f	-0.14974736
192	0x3e141e00	0.14464569
193	0x3d6c8e0a	0.057752647
194	0xbe911aa6	-0.28340644
195	0x3d6e5f0f	0.058196124
196	0x3dab615c	0.08368179
197	0x3dc1d91e	0.0946524
198	0xbdaaf524	-0.08347538
199	0xbc8488fc	-0.0161786
200	0xbd9fb72e	-0.07798611
201	0x3d806d23	0.06270816
202	0xbcd16f38	-0.025565729
203	0x3c16bd92	0.0092004705
204	0x3d4e6b06	0.050395034
205	0x3cf47690	0.029841691
206	0xbe5919bc	-0.21201223
207	0xbe93db41	-0.28878215
208	0xbc36aa6d	-0.011149031
209	0x3e88431d	0.26613703
210	0xbe6e40df	-0.23266934
211	0x3e415e7b	0.18883698
212	0x3d11fc45	0.035640974
213	0x3dab951d	0.083780505
214	0x3dadd99a	0.0848877
215	0xbdbabac7	-0.09117656
216	0x3e285adc	0.1644091
217	0x3de96a05	0.11397175
218	0x3e444b8c	0.19169444
219	0x3d570544	0.052495256
220	0x3cf6116a	0.0300376
221	0xbce3ab9d	-0.027791793
222	0xbd12f8a2	-0.035881646
223	0x3d895682	0.06705953
224	0x3d30acf0	0.043133676
225	0x3e001184	0.12506682
226	0xbe99ee54	-0.30064642
227	0xbe89edf7	-0.26939365
228	0x3dec0cd0	0.11525881
229	0x3e17598a	0.1478025
230	0x3e44dfd1	0.19226004
231	0xbdba3947	-0.09092956
232	0xbe2b65be	-0.1673803
233	0xbb56a3fa	-0.0032751546
234	0x3deed7d3	0.11662259
235	0x3d39a1a7	0.04532018
236	0xbe1ce3de	-0.153213
237	0xbce8b86d	-0.028408254
238	0x3d5421f0	0.051790178
239	0xbf0b5c1d	-0.5443743
240	0xbe1bdea6	-0.15221652
241	0xbe1e24f9	-0.15443791
242	0xbcb4c5ed	-0.022067035
243	0xbd2943ac	-0.041324303
244	0x3dcedff8	0.101013124
245	0x3e1cf87a	0.15329161
246	0x3cdc1383	0.026864773
247	0xbd70ba19	-0.058771227
248	0x3dd7487c	0.10511872
249	0x3e6a7ad1	0.22898413
250	0xbdb3bc33	-0.087761305
251	0xbd845e86	-0.064633414
252	0x3d21dfb6	0.039519988
253	0x3d86e86e	0.06587301
254	0x3c60ffd9	0.013732874
255	0xbe68ec31	-0.2274635
