Code/PC/computer_vision_driver.tflite (tflite, 126296 bytes, 10 tensors)

sequential/conv2d/BiasAdd/ReadVariableOp f4 [16]
00000000: 7673 993b ede5 883c 7bac d8bc 09be 933c
00000010: 1eb3 a43c cc03 8fbc baec 26bd 1d2c 19bd
00000020: f2cd fbbc 31af 0f3c c5d3 00bc cc7e 0ebd
00000030: 6ad9 19bd c0e1 11bc 2def 9abb d069 c6bc
0.0046829535 0.0167112 -0.026449433 0.018034952 0.020104941 -0.017457865 -0.040753104 -0.037395585
-0.03073785 0.008769796 -0.00786299 -0.03478889 -0.037560858 -0.008903921 -0.004728219 -0.024220377

sequential/conv2d_1/BiasAdd/ReadVariableOp f4 [32]
00000000: 2b15 87bc 90f1 673d c2be 7ebb 03cf 8a3d
00000010: cb0a 3abc 4286 b0ba f57b 56bd e90b cfbb
00000020: c80c 563c 8833 92bc f2bd 41bd 406c 24bc
00000030: 2f17 be3b 326d a1bc b5a8 edbc c22a 93bd
00000040: 792f 1c3c 75a5 69bc 969e 9bbc fd43 b2bc
00000050: 7e19 523d b776 3c3d 23fb 2cbc 2742 89bc
00000060: c2dd 58bc 5aae c9bb 59c7 e7bc bfd9 f7bb
00000070: 9efa 71bc ffba 38bd ba80 82bc a0de f5bb
-0.016489586 0.056626856 -0.0038871025 0.067777656 -0.011355112 -0.0013467746 -0.05236431 -0.0063185585
0.013064571 -0.017846838 -0.047300287 -0.010035574 0.0058011035 -0.019705389 -0.02901111 -0.0718589
0.009532803 -0.014260639 -0.018996518 -0.021760935 0.051293842 0.046011653 -0.010557923 -0.016755177
-0.013236465 -0.0061548175 -0.028293299 -0.007563799 -0.014769224 -0.04510021 -0.015930522 -0.0075033456

sequential/conv2d_2/BiasAdd/ReadVariableOp f4 [16]
00000000: 93db 86bc 480b 38bc ae65 a13b 6e99 fa3d
00000010: 71d3 73bc 1811 dabd 1214 d6bc 9b24 c93b
00000020: cc91 9e3c 256e 5dbc 147a 72bd b6fd 383d
00000030: 60eb 33bc 6850 f8bc 9ec0 bdbc a673 91bc
-0.016462123 -0.011233158 0.0049254512 0.12236296 -0.0148819545 -0.106477916 -0.026132617 0.006138397
0.01935663 -0.01351503 -0.059198454 0.045163833 -0.010981411 -0.030311778 -0.023163136 -0.01775534

sequential/conv2d/Conv2D f4 [16, 3, 3, 1]
00000000: 444a fdbd 90f8 25be b767 b83d 266e 0f3e
00000010: 13b4 a63d ae41 3bbe 7f59 c83c a8f8 2b3e
00000020: 7597 23be 5d54 f9bc 2fcd 18bd 1c92 33be
00000030: 0267 283e 086a babc e43a d63d 2fe8 f0bd
00000040: 9ae3 fabd f7e2 413e 23e7 c1bd a926 eb3d
00000050: 36fd 0d3e d14e 4dbe 612d b7bb 97b2 5d3d
00000060: 44ce 02be d7f0 f13d 62ce c83d e976 623e
00000070: abc0 573d 1d3d 743d 03b2 9cbd 5821 16be
00000080: a93c f8bd 12b1 41bd ee53 94bd bc5f 0abd
00000090: d225 0abd d3f3 cc3d 22cb 0cbe 1ea1 41be
000000a0: 2ffb 033e 558a b43d ffe9 82bd 4984 73bd
000000b0: 897e db3d 3c26 4abe 8941 563e 6c48 343e
000000c0: 6170 203e c045 ac3d 0260 25bd ec04 3bbe
000000d0: 1323 0fbd d2e7 5dbe 136d b83d 0f9f 81bc
000000e0: d6bc 8e3d d9be de3c fb3c b23d 8903 f2bd
000000f0: 5069 2f3e 5348 4ebe b559 83bd b7f4 cebc
00000100: c881 aebd d034 f33d e941 8c3d 3596 3ebe
00000110: 7769 8c3c 5ee4 173e 41a7 f23d 6d36 51be
00000120: a2fc 903d b918 3dbd 4c4d e6bd 1cf2 ae3d
00000130: 983b 77bc a131 083e a6c5 c83d 1c67 6bbd
00000140: 541c 143e da94 1dbd d2b7 103e 1557 443d
00000150: a499 cabd 98d9 2f3e 9b7d dbbd d7da d8bd
00000160: c2b1 3bbe e369 ed3d f391 c93c b695 be3d
00000170: f131 a23d 8b4e 75bd 4124 44be b9f1 ef3d
00000180: db79 0fbd 9c03 25be 2cb1 1b3e 4945 d33c
00000190: 36e5 2c3c 4538 e63d ce36 16be 7185 973d
000001a0: f131 b53d fcc5 ea3d cefb f5bd 789d 25be
000001b0: 856f e63d b118 273e e16a 28bd 58bd c9bd
000001c0: 510c 763d 0586 4cbe 5312 283e dc54 2f3c
000001d0: 007b 24be 6288 90bd 92ce 373e 49db 98bd
000001e0: 30df f6bd 43fe 883d a413 41bd 8378 5ebc
000001f0: 8b14 443e 9819 0bbe 8c60 efbc 524b 663a
00000200: 2cf6 a3bd e301 123e ddd4 d8bd f241 0cbe
00000210: a14a 3b3c 7f5b 2fbd 5a86 fe3c 1841 e5bb
00000220: aac8 85bd c917 243e 5064 433d 7931 0e3e
00000230: 478f 6dbe 9748 7abd b943 acbd 96e4 0c3d
-0.12367681 -0.162081 0.09004157 0.14006862 0.08139815 -0.18286774 0.024456738 0.16794074
-0.15975745 -0.030435735 -0.037305053 -0.17536205 0.16445544 -0.022755638 0.10460451 -0.117630355
-0.12250443 0.18934236 -0.09467914 0.11481983 0.13866124 -0.20049597 -0.0055901264 0.054125395
-0.12773997 0.11813515 0.098049894 0.22115673 0.052673977 0.059628595 -0.076511405 -0.14661157
-0.12120945 -0.047288008 -0.07242571 -0.033782706 -0.033727475 0.10007443 -0.13749364 -0.18909118
0.12888788 0.08815447 -0.063922875 -0.05945233 0.10717494 -0.19741148 0.20923437 0.17605752
0.15667869 0.08411741 -0.040374763 -0.18263596 -0.03494556 -0.21670464 0.09005179 -0.015822915
0.06969611 0.027190613 0.08703037 -0.118170805 0.17130017 -0.20144777 -0.06413595 -0.025263174
-0.085208476 0.118753076 0.06848509 -0.18611987 0.017140133 0.14833209 0.118483074 -0.20430918
0.07079436 -0.046166155 -0.11245212 0.085422724 -0.015089892 0.13300182 0.098033234 -0.05747138
0.14463931 -0.038472034 0.14132622 0.04793461 -0.09892586 0.17172849 -0.10717317 -0.105886154
-0.18329528 0.11592462 0.024605727 0.09305899 0.07919682 -0.059889358 -0.19154455 0.11716027
-0.03502832 -0.16114658 0.15204304 0.025789874 0.010552695 0.11241201 -0.14669344 0.07398499
0.08847416 0.11463544 -0.120109186 -0.16173351 0.112517394 0.16318013 -0.041117553 -0.098505676
0.06007034 -0.19973 0.1641324 0.010701384 -0.16062546 -0.07057263 0.17949894 -0.074637
-0.120542884 0.066891216 -0.04713787 -0.013578537 0.19148462 -0.13583982 -0.029220842 0.00087850273
-0.08005938 0.14258532 -0.105874754 -0.13697031 0.011431367 -0.042811867 0.031069923 -0.006996285
-0.06532414 0.16024698 0.047703087 0.1388606 -0.23199187 -0.061104383 -0.084113546 0.034397684

sequential/conv2d_1/Conv2D f4 [32, 3, 3, 16]
00000000: 6982 84bd 2324 a63b 89f5 a63d bdfb a63d
00000010: bbc2 f53d 9496 3fbd 7406 8e3b 403a 46bd
00000020: 4a83 1a3d a402 483d aea0 48ba 2819 bf3d
00000030: 8182 6e3d 8638 d43d 8021 c0bd c88f 8c3d
00000040: c6fc 83bd 0bbb 883e c213 93bd dede 983d
00000050: 72d1 3c3d 4118 103d 4a06 bdbd ceee e8bd
00000060: 7f5b 24bd a914 3d3e 2539 f63d 4424 c0bd
00000070: c86b 4ebe e001 0dbd 5769 adbc 4eeb a5bd
00000080: 60d5 ec3d a1a5 68bc 1a4c 733d 54bb fa3d
00000090: ccc7 21be 5574 503d 89cf ba3d 56ab 9e3c
000000a0: 34b0 6dbc f968 8d3d 6c43 53be fb7b 343d
000000b0: 5863 f73c 71fd b53e 5ace a8bb 0bd8 093e
000000c0: 8bc2 38bd ec20 af3d 79f5 eebd 55ae e03d
000000d0: 86a9 dbbd 5d55 85bd 47b1 cfbc 2019 ef3c
000000e0: 75c1 33bd ea65 42bc d5c6 cc3c c39b bd3d
000000f0: fdbe eebd c73b 98bc 01db 10bd f34e 45bc
00000100: 1d08 443e 053a a13d 148d 013e 13ac 2fbc
00000110: 4a20 3e3e 6d8c 013e 0af4 a5bd 68b3 1cbc
00000120: 68de 73bb 0fa7 a83d d275 6a3e 47ae 0c3e
00000130: 9836 84bb 4809 303e 276c 1cbe 2478 5b3d
00000140: f7e2 0a3e 7d7f 8e3e 71f1 013c 531d 653e
00000150: 6eb0 143e a519 be3d 9e6a fb3d 7d1d 1ebd
00000160: cbb2 6d3d f9e7 303e 89f5 663d 008c 793b
00000170: 9d94 033e a454 9d3e 9ce0 243d 629d dd3d
00000180: 319e ac3d 2104 183e 1ccf a43d 4bc7 44bd
00000190: 2976 74bd 11b1 b53c 0642 103d 45ec 1c3d
000001a0: 0fb4 6a3d c37f 04bd bae5 b53c fb32 86bd
000001b0: f9b0 2bbd 97f0 643c cbf7 a83d 76c0 aa3d
000001c0: 4298 643e ea9b 433e 05af c6bd 25e8 0a3e
000001d0: 5372 e73a 33c7 113d 619e 46bd 839a 163e
000001e0: 8f0c dcbd d6fd e73d e186 0d3e 272e 1b3d
000001f0: 3cf6 d33d 9555 9f3e cad7 0bbd d359 d73d
00000200: c2b4 1f3e ddda 2f3e a332 aebd 858e 8f3e
00000210: 935e 573e 82f5 523e c539 15bb 53ed fa3d
00000220: 60e1 0ebd 069f 2b3e 1c59 d83d ad70 04bd
00000230: 785d 573e a360 893e 7906 f83d 0a6d 1abd
00000240: 5e9d 06be 7a16 f4bd be38 e23d 37af 063d
00000250: ae52 b73d 3d63 6f3d a414 34bd 44b7 453c
00000260: 706a 7ebd 4655 693b 30dd 2abd fedd c5bd
00000270: 4006 8c3c ce35 f13d c76b c03d 566b a23d
00000280: 29c7 2abe fd6b 08be 2705 203d 4d27 46bd
00000290: da30 103e 3cc0 2d3d 2fb6 a53d b4af a73a
000002a0: a1bf 22bc 76f4 863d 69a3 173e cc0b efbb
000002b0: 4748 92bd be5b dbbd b28c cdbd 05ce debd
000002c0: 56ab 14be d4a3 e5bd 3ca5 033e 92b9 dbbd
000002d0: 6b73 013d 45a8 c03c 9400 9abd 7172 20bc
000002e0: 8dd1 843d 3df7 293e 9fd3 e33d f1e5 37bc
000002f0: 7c4e fdbd 1fc7 d0bc f21d dbbd 1181 9a3d
00000300: 8c8e 903d 2293 3cbe 1b71 79bd c78e 9c3d
00000310: ccce cfbb fa59 193d 7fb1 6bbd 03c6 fabd
00000320: 1261 b7bd 8ce3 0b3e 9945 9a3b 0667 c9bb
00000330: af6a 1dbd 5ec0 d83c 68e9 93bd 1405 273d
00000340: 47c3 d8bd 3f1f 29be bf38 8d3d 6070 c33a
00000350: c651 cb3d 69c3 d93d 9b85 1abc dd6a b6bd
00000360: 3096 c9bd 8d53 003d 9da9 313c 6835 8cbd
00000370: f8d9 b1bd fe55 78bc 1b36 6b3d 664c 053d
00000380: 2742 30be 6f45 16be b45a 9c3c aa30 54be
00000390: 40d0 acbb 639f e2bd 9eed b6bd f6c7 5b3d
000003a0: e84d 233d ff21 b0bc 3e14 d43d 96fb 203d
000003b0: cb0f d039 ba5f 09bd a6b6 fcbd a145 9ebc
000003c0: 6e9a 8dbd 0329 1bbe aef3 c23d 30f4 d03d
000003d0: 63cd c5bb 81da 833b 7b49 d63d f17b b13d
000003e0: 04dd 6c3d 27c6 8e3d 0b9e 953c 93c8 453d
000003f0: 6831 77bd 9b72 473d 9e4c aa3d 141f 26bd
-0.06470186 0.005070226 0.08152301 0.08153484 0.120000325 -0.046774462 0.0043342654 -0.048395395
0.037722863 0.048830643 -0.00076533377 0.0933097 0.058229927 0.103623435 -0.093813896 0.068633616
-0.06444697 0.26705202 -0.07181503 0.074643835 0.04609818 0.03517938 -0.09229715 -0.113736734
-0.04012632 0.18464912 0.12022618 -0.09381917 -0.20158303 -0.034425616 -0.021168394 -0.081015214
0.115641356 -0.014199645 0.059398748 0.12242761 -0.15798873 0.050892193 0.091216154 0.019368809
-0.014507342 0.069047876 -0.20631188 0.04406355 0.030198738 0.35544923 -0.005151552 0.1346132
-0.045107406 0.08551201 -0.11667914 0.10970751 -0.107256934 -0.065104224 -0.025353087 0.029186785
-0.043885667 -0.0118651185 0.024997154 0.09258225 -0.11657522 -0.018583192 -0.03536511 -0.012042749
0.1914372 0.078723945 0.12651473 -0.010722178 0.18567005 0.12651224 -0.081031874 -0.009564258
-0.0037211422 0.08234989 0.22896507 0.13738357 -0.0040348284 0.1719104 -0.15275632 0.053581372
0.13563143 0.2783164 0.007931099 0.22374468 0.14520428 0.09282235 0.12276195 -0.03860234
0.05803184 0.1727599 0.056386504 0.0038077831 0.1284966 0.30728638 0.040253267 0.10821034
0.0842861 0.14845325 0.080473155 -0.048041623 -0.059683 0.022179158 0.035219215 0.03831126
0.057300624 -0.032348406 0.022204269 -0.065526925 -0.04191682 0.013973377 0.08250388 0.0833749
0.22323707 0.19102445 -0.09701351 0.13565119 0.0017657973 0.03559036 -0.048490886 0.14707379
-0.10744583 0.11327712 0.13820983 0.03788581 0.103497 0.3111998 -0.03414134 0.105151795
0.15596297 0.17173333 -0.08505752 0.2803842 0.21032171 0.20601466 -0.002277003 0.12252297
-0.034882903 0.16759881 0.10563871 -0.03233402 0.21031749 0.2683154 0.121106096 -0.037701644
-0.13145968 -0.119183496 0.11045979 0.03288194 0.08951317 0.05844425 -0.043964997 0.01206762
-0.062113225 0.0035603805 -0.041714847 -0.09661482 0.017092824 0.117778406 0.09395557 0.07930629
-0.16677536 -0.13322444 0.039067414 -0.048377324 0.14081135 0.042419657 0.080913894 0.0012793452
-0.009933383 0.06589596 0.1480843 -0.0072951075 -0.07142692 -0.10710858 -0.10036601 -0.10879139
-0.14518484 -0.11212888 0.12856 -0.10728754 0.03160421 0.023517737 -0.075196415 -0.00979291
0.06485281 0.1659822 0.11124348 -0.011224256 -0.12368485 -0.025485573 -0.10699071 0.07544149
0.07058439 -0.18415502 -0.06089888 0.0764442 -0.006341791 0.037439324 -0.05754232 -0.12244799
-0.089540616 0.13661021 0.0047080037 -0.0061463146 -0.03843182 0.026458915 -0.07222253 0.040776327
-0.10584121 -0.16515826 0.06895589 0.001491081 0.099277064 0.10632975 -0.009431268 -0.08907101
-0.09843099 0.03132968 0.010843662 -0.06846124 -0.08684152 -0.015157221 0.057424646 0.032543562
-0.17212735 -0.14674924 0.01908622 -0.20721689 -0.005273849 -0.11065557 -0.08932041 0.053657494
0.03986922 -0.021500586 0.103554234 0.03930243 0.00039684618 -0.033538558 -0.12339525 -0.019320311
-0.06914221 -0.15152363 0.095191345 0.10202825 -0.006036447 0.0040238504 0.10463234 0.08666218
0.057827964 0.06971388 0.018263837 0.048286986 -0.06034985 0.04869328 0.08315395 -0.040556982

sequential/conv2d_2/Conv2D f4 [16, 3, 3, 32]
00000000: e72c ae3c caae 45bd 5524 aebc 5ed5 023d
00000010: 6e7a 97bd 6eea 8abc 3edf a13d f40b d23d
00000020: cb91 b0bd 7f10 34bd 1aa9 6ebc eef3 a3bd
00000030: 8bd5 48bd 4707 a03d 9e8a a3bd 1804 01be
00000040: 1d55 48bd 756d a13d e802 c53d 7d45 3f3c
00000050: 6a2b d63d 14e3 493c d97d d8bd cc70 08bc
00000060: a693 623d 8d56 a8bd 146d d0bc 7ee4 c53d
00000070: 1fb7 ba3d e299 30bd ac47 a3bd 4219 e03d
00000080: d695 ac3c 0653 e4bc 1d8e 0fbe 58ef d7bd
00000090: 8b1f 41bd 7655 2b3d b701 a33d 40d1 eabc
000000a0: d5c3 4cbd 0249 3d3e 55a4 bb3d 7afe e2bd
000000b0: fd50 2fbe 0d72 d4bd 0763 02be 2edd d1bd
000000c0: 4ea4 09be 38fc 1d3d a148 bcbc 180a 1fbe
000000d0: 2dd4 debc 08d9 dfbd bb19 ad3d bf61 44bd
000000e0: eed4 413d 1b42 3ebd fdb5 89bd bba7 a5bd
000000f0: 5516 803d 55b1 d23c 6de8 a03d 7a78 10bd
00000100: 6ae9 323e 1616 9abd 4005 583d a89b b0bd
00000110: 620d 953d f972 f73d 789a 0d3e e837 debd
00000120: 113f 903d e0df 933d d68b 103e a7c7 aabd
00000130: 94ac aabd a8e9 763d 5e6a 91bd 6c79 2d3e
00000140: fa01 9dbd ecbb ccbd 24bc 2bbc 226f 16bd
00000150: 92b0 a0bd a086 9ebd d051 e3bd 9d94 823d
00000160: cdc3 813d 1d07 793d 48b3 143d dfa9 50bd
00000170: 7a49 f339 7d61 0bbd 3458 823d 3b7e 553e
00000180: 5b7d d33d f58f 093e 3222 103e d1e6 d23d
00000190: c8a3 1f3e 207b 233e 5274 9a3d 0634 303b
000001a0: 519a 743d d121 2e3d 408c 32bd 9aa1 423e
000001b0: 99b9 213e af4f 0fbc 080f 5c3d b020 94bd
000001c0: 14e8 9b3c 1a73 093d 61bb 4fbd 5826 0fbc
000001d0: b7b1 68bc e9e4 cabd ccbd bbbd 6295 203c
000001e0: 1332 edbd 2df1 8d3d ea81 43bd d8c7 423d
000001f0: 7dce 3cbd e374 24bd e577 ce3d b2e3 113e
00000200: b71d 1ebb 6bee 41bd 6cca a53d 4214 a8bd
00000210: 436c 853d 5e1b 81bd 95a6 6c3c 2aa1 a73c
00000220: 0a1a ac3d fae1 f33b 2c1f f13c e602 e53d
00000230: 1e56 15bd 5022 e1bc 12cc 9c3d 1e8b dbbd
00000240: 5451 8cbd 46ca d6bd d171 063d d7aa 423d
00000250: c4be 1abd 33ce aebc 2c5e fe3c 0bf2 2e3e
00000260: 6464 49bd 173b 85bc 0578 da3d e36e 1dbd
00000270: 1042 90bd 681a 613c f5df c03d ff31 f73d
00000280: fb19 4b3e 845c 6fbd d69b 2a3d c3f7 afbd
00000290: 6aac 2d3e 1596 523e 4c37 183e ab82 cebd
000002a0: 9620 613d 38bb 0d3e 84ab 513d deee 473e
000002b0: f82e 2d3e 6000 cc3d 01de f63c 0aca 3d3e
000002c0: 3c86 2e3d 0228 f13d eaf0 a53c 40d8 f43d
000002d0: 23dd 2a3c ac0a c8bc 2e43 d2bc 5736 893e
000002e0: b483 be3c 5a22 343e 801b 0b3e 877b 9d3c
000002f0: bcc1 903d 1d90 2f3e 6ed6 ba3a 39b8 733e
00000300: 4767 013e fd5d 3fbd a494 843d e4ad 05bc
00000310: 4a0c 6a3e 9394 553e bff1 493e bbe1 173e
00000320: 3e85 403d a2ed 7dbd 8846 223e 90e7 f63d
00000330: 98b9 283d 7c25 023e cbb8 82ba 6c72 4e3e
00000340: b40e 5e3c c571 e4bc f7e1 85bc 7bf4 3e3e
00000350: e7a9 a43c af27 e63d c4bd 9f3d 898c 7c3e
00000360: f84b 103c 4c98 433e f71f 7dbd f8db cf3d
00000370: 46e0 053e 76f1 263e b84c a33d f51d 9a39
00000380: dd7d fd3d ccb3 59bd 5c82 bc3d 8259 bdbd
00000390: bf2b 683e 8b95 933e c349 683e 2daf 3cbd
000003a0: 76c2 1b3c 4729 a93d 0b8d a0bd 04a4 823e
000003b0: 217f 743e 3b0a a4bc bc37 0a3e c8c7 0a3e
000003c0: 10d1 be3d a900 633d c279 0e3e 3ff7 e43d
000003d0: 5d30 9f3d 3cf4 a8bd d95f b23d 0ed3 073e
000003e0: c857 2ebd 7912 103d 8adf 9c3d b107 1e3d
000003f0: e789 d53d 5027 653e a2da f73d 09f4 663e
0.021261645 -0.048262395 -0.021257559 0.031941764 -0.073963985 -0.016957488 0.07903908 0.10256186
-0.08621558 -0.043961044 -0.014566684 -0.0800551 -0.049031775 0.07813888 -0.079854235 -0.12599218
-0.048909295 0.078822054 0.09619695 0.011674282 0.10457499 0.012322206 -0.105708785 -0.008327674
0.05531659 -0.08219633 -0.025442638 0.09662722 0.09116959 -0.043115504 -0.07972655 0.109423175
0.021067541 -0.02787162 -0.14019056 -0.10543698 -0.047149222 0.04182955 0.079593115 -0.028664231
-0.049991447 0.18484882 0.09162203 -0.11083694 -0.17120738 -0.10373316 -0.12733088 -0.10247265
-0.13441584 0.038570613 -0.02298385 -0.15531194 -0.027200783 -0.10930067 0.08452173 -0.04794478
0.047322206 -0.04644976 -0.06724165 -0.08088633 0.062542595 0.025719324 0.07856832 -0.035271145
0.17471853 -0.07523744 0.05273938 -0.08623439 0.07277943 0.12082476 0.13828456 -0.10850507
0.07043279 0.07220435 0.14115843 -0.08338862 -0.08333698 0.060281426 -0.07100366 0.1694085
-0.076663926 -0.09996781 -0.010481868 -0.03672708 -0.07846178 -0.077405214 -0.11099589 0.06376002
0.06336174 0.0607978 0.03630379 -0.05094325 0.00046403316 -0.03402852 0.0636448 0.20848934
0.10326644 0.13433821 0.14075544 0.10297931 0.15589821 0.15964937 0.075417176 0.0026886477
0.05971748 0.04251272 -0.043590784 0.19006959 0.15793456 -0.008747025 0.053725272 -0.07232797
0.019031562 0.033557035 -0.050715808 -0.008737169 -0.014202527 -0.099069424 -0.0916706 0.009801241
-0.115818165 0.06930766 -0.047731318 0.047553867 -0.04609536 -0.040150534 0.10081462 0.14247015
-0.0024126598 -0.047346514 0.080952495 -0.08206989 0.0651479 -0.06304048 0.014444013 0.020462591
0.08403404 0.00744271 0.02943381 0.111821935 -0.03645908 -0.027482182 0.07656111 -0.10719894
-0.068514496 -0.10487799 0.032823388 0.047526207 -0.037779585 -0.021338558 0.031050764 0.1708452
-0.049168006 -0.016263528 0.10667423 -0.038435828 -0.070438504 0.013739206 0.094177164 0.12070083
0.1983413 -0.05843784 0.041652523 -0.08592179 0.16960302 0.20565064 0.14864844 -0.10083517
0.054962717 0.1384095 0.05118896 0.19524714 0.16912448 0.09961009 0.030135157 0.18534103
0.042608485 0.11775209 0.020256478 0.11955309 0.0104287 -0.024419151 -0.0256668 0.2679927
0.02325616 0.17591229 0.13584709 0.019223941 0.07068202 0.17144819 0.0014254579 0.23800744
0.12637053 -0.046720494 0.064736634 -0.008159135 0.2285625 0.20857458 0.19721125 0.14832203
0.04700207 -0.061994202 0.15847218 0.12055886 0.04119262 0.12709612 -0.0009973285 0.20160836
0.01355331 -0.02788628 -0.0163431 0.1864795 0.020100547 0.11238038 0.07799867 0.24662985
0.008807175 0.19101065 -0.061798062 0.101493776 0.13073835 0.16303048 0.07973617 0.0002939549
0.12377522 -0.053149983 0.092045516 -0.09245588 0.22672938 0.2882503 0.22684388 -0.0460655
0.009506812 0.08259826 -0.07839402 0.2551576 0.23876621 -0.02002441 0.13497823 0.13552773
0.09317219 0.05542055 0.13913634 0.11179971 0.077728964 -0.08249709 0.08709688 0.13264105
-0.042564183 0.035173867 0.07659824 0.038581554 0.104266934 0.22378278 0.12102248 0.2255403

sequential/dense/BiasAdd/ReadVariableOp f4 [128]
00000000: a850 48bc ff23 77bc 064f 39bd e347 8bbc
00000010: a76e dbbc b55f 843d ca5f 88bd cbfc b1bc
00000020: c049 31bc 99c1 b4bc 2388 e8bc a2a0 de39
00000030: d7f0 5c3c bce1 063d 03c2 00bc 4ad6 22bc
00000040: aa9a b4bc 1e8e 0abd f65b febc f904 5bbc
00000050: fb7e 84bc 3bcb dfbc db2c 2e3e 61d6 203d
00000060: 9651 d1bc 60b3 823d 4cb9 0e3e 1d6e 20bc
00000070: b0a0 79bc e1ad 4dbc 0000 0000 3d3c 9fbc
00000080: d206 95bd 4890 35bd 9707 cabc 0cfc 54bc
00000090: e180 97bb 5fbc d3bc a596 2d3d 7b7b 89bc
000000a0: f789 323c a8a9 de3d d717 773d 4aff 4bbc
000000b0: ce6b 89bc 24ee 5f3b 70f1 aabc f54e 53bc
000000c0: 9d0f 9ebc 3ef1 2abd ffc8 a5bd e3d7 9abc
000000d0: 8001 44bc 43af 86bc 5a97 f8bd 47ef b2bd
000000e0: f838 59bc 7a8b b63d 2a93 cd3d be84 71bd
000000f0: 74df a1bc fd40 0dbd 9255 833d 74f1 203e
00000100: 0000 0000 f12b 67bc 5618 68bc a29e 26bb
00000110: d9af 0c3b 4d00 8cbd 0000 0000 18a3 09bd
00000120: e478 013d 5217 193e 0889 c3bd 28eb 8cbc
00000130: 0e60 41bd 1961 c0bc 56b2 d53c 862d 7bbc
00000140: 78ef acbc 84f9 17bd e7fa ad3d a3d5 4dbc
00000150: 0905 5e3c 643c 8dbc e7db a9bd 5611 193d
00000160: 1b21 803c 2aab b7bd 47b9 29bc fa8f 74bc
00000170: 3119 173e b695 11bc 3654 1e3c baca 79bd
00000180: 6fd7 13bd a1c4 083e 7544 2bbc 4efc 23bc
00000190: d14c 873d 0fec 5ebc e0c6 15bc 6e5a 50bc
000001a0: a46e 1abd a5c1 fdbc 0988 a4bc ca1e 24bd
000001b0: 4214 98bc 762c 01bc 5ed2 b53d b6ca 35bc
000001c0: fe8f 4dbc 3ebb 6dbc fcb1 6bbc ccc6 81bc
000001d0: 3d14 f43d 061e e23a 4eda 9fbc 482f 8e3b
000001e0: 556d 573d c719 f9bc 1cbd bfbc dc60 8cbc
000001f0: e15e ca3c 0cbf 5dbc a83f 13bd 5160 b13d
-0.012226261 -0.015084266 -0.04524138 -0.017002052 -0.026786162 0.06463567 -0.06658895 -0.021726986
-0.010820806 -0.02206497 -0.028385228 0.0004246282 0.013485155 0.03293012 -0.007858756 -0.009938786
-0.022046406 -0.03382694 -0.03104971 -0.013367885 -0.01617383 -0.027318588 0.17009299 0.039266948
-0.025551599 0.06381869 0.13937873 -0.009791878 -0.015236065 -0.012553663 0.0 -0.019437904
-0.072766915 -0.04432705 -0.024661822 -0.012999546 -0.004623518 -0.025846658 0.042379994 -0.016782513
0.010897151 0.10872203 0.06032547 -0.012451002 -0.016775038 0.0034169042 -0.02086708 -0.012897243
-0.019294554 -0.041733973 -0.080949776 -0.018901771 -0.011963248 -0.016440993 -0.12138243 -0.08737045
-0.013258211 0.08913322 0.10037835 -0.058964483 -0.019759871 -0.034485806 0.064128056 0.15717107
0.0 -0.014109598 -0.014165958 -0.0025424142 0.0021467118 -0.06835995 0.0 -0.033602804
0.03160943 0.14950302 -0.09547621 -0.017201975 -0.047210746 -0.0234838 0.026086014 -0.015330678
-0.021110281 -0.03710319 0.084951214 -0.012563142 0.013551005 -0.01724071 -0.08293896 0.03737005
0.015640786 -0.08968194 -0.010359115 -0.014926905 0.14755704 -0.0088857915 0.009663632 -0.06098435
-0.036094125 0.13356258 -0.010453333 -0.010008885 0.066064484 -0.013606085 -0.009141654 -0.012716873
-0.03770317 -0.030976126 -0.020084398 -0.040068425 -0.018564347 -0.0078841355 0.08878015 -0.011095693
-0.012546537 -0.014509974 -0.0143856965 -0.015841864 0.11917923 0.0017251379 -0.019513275 0.0043391325
0.0525945 -0.0304078 -0.023405604 -0.01713603 0.024703445 -0.013534319 -0.03594938 0.08660949

sequential/dense_1/BiasAdd/ReadVariableOp f4 [4]
00000000: e4a6 14bd f9c4 9e3c a7b8 9e3d edcf 81bd
-0.03629197 0.019381033 0.077500634 -0.06338487

sequential/dense/MatMul f4 [128, 160]
00000000: e381 abbd 0051 823b 40c3 3a3c da34 1e3d
00000010: 197f a2bd 3cc5 61bd b4f2 b13d 58e1 cfbc
00000020: 7477 06be b4d5 0ebe d631 84bd 0a8d 1c3d
00000030: d022 ed3d a00c fb3d e37b ddbd 7a3e 653c
00000040: 4a16 813c 32b6 bcbd 04d2 9f3d b735 f8ba
00000050: 78b5 ed3d b03e dabc 1a66 0bbe 5afa d23d
00000060: 79c2 9cbb 97fb d7bd 8012 59bb bae6 cdbd
00000070: f8cd b83c ef97 00be d6e3 fb3d 14f7 73bd
00000080: 3666 a5bd 824d c33d 8070 bc3c 4108 e03d
00000090: 3c0f 07bd a51d 0cbe 2864 cf3d a51b cbbd
000000a0: 715e 3ebd f500 98bd e808 4c3d 61a2 c13d
000000b0: 22fa 0a3e b463 f8bc fe65 163d 500a 7c3d
000000c0: 9a00 8a3d fe00 e4bd 0020 55bd 7775 e9bd
000000d0: e422 423d 2a86 0fbe 65e9 cabd 6e47 17be
000000e0: a2fd 9dbd 1c4f de3d 70af fa3c 1207 823c
000000f0: a27d eabd 5401 00be d21a 46bd 24b7 6d3d
00000100: 9e9c c53d a8b0 02bd 6611 083e b70e 15be
00000110: 6e67 8b3d 5aee 73bd 805c cfbb 2dca 12bd
00000120: 29e9 f9bd 60cc 06bc 5269 0d3e 41e0 a9bc
00000130: d4bf e8bd eefc c43d b8ee 10be cc69 c63d
00000140: b19d 933d 4c31 babd 8c07 9fbd 2edc ef3d
00000150: a845 dc3d a7c8 87bd 4954 a7bd ed64 f83d
00000160: 4aff d3bd bc2b e5bc ecd8 99bd af35 71bd
00000170: 2868 b73c 00b2 f539 ecc3 3ebb ea38 8b3d
00000180: d0e8 953d 3279 02bd 00c8 9eb8 2a4a ddbd
00000190: eadd f4bd da6e c9bd 1e93 50bd 5eeb fbbd
000001a0: 75df f7bd fcea 243d 3a41 1bbd 1e2e 523d
000001b0: e482 24bd b03b e93c 89cb e53d 768f c13d
000001c0: 93df 043e 6264 c7bd 6efc 0fbe ad96 c63c
000001d0: 98a6 0d3e a6fd 113e 938a 01be 1842 1dbe
000001e0: 60a2 413d 58d6 de3d 384d ca3d b5b3 a7bd
000001f0: 009f f9bc 8000 2c3c 7468 0bbe 606e f2bd
00000200: bcec 1f3d d014 3b3c b449 b6bc 7340 993d
00000210: 4eb7 e0bd 5075 e7bc 8067 4e3c f356 0fbd
00000220: afcf 15be 7448 93bd c42c c7bc 2e67 723d
00000230: 986c 45bd 40e5 4fbb b5be a1bd 60dd 013d
00000240: 0c94 883d b093 babc 4f45 0cbe 4001 e4bd
00000250: 5a39 8f3d 970a e2bd ae22 cbbd 8135 e1bd
00000260: dee5 a4bd 94c4 a83d 3096 b23c 1a7c ce3c
00000270: c88a d03c 70a2 4fbd e05c 893d aa53 6cbd
00000280: 6e96 b23d 2046 333c 74dc f83c d712 69bc
00000290: b557 40bc 90bb 8a3d 26d4 093e c5a5 60bd
000002a0: 314e 953d d07e 133e 38da b33d d4cb a1bd
000002b0: a0f7 e0bc c63c 033d d71a aabd 0f62 7f3d
000002c0: 2296 96bc c252 0b3e 0fc6 07be b778 1fbe
000002d0: 2ca8 acbb 9c6d 75bb b06b 2c3d 2108 32bd
000002e0: cf7a 55bd 82d3 60bd cfac 80bd fea2 1fbe
000002f0: 0623 b63d 921d 80bd 6af9 f63d a4fd ca3d
00000300: 1f32 0dbe 3b01 9bbd 7352 f13d 6188 193d
00000310: 7eae 03be 11d9 ec3a 6c18 0ebd 8be3 5039
00000320: 9eef a43d 1e55 113e f03f a73c 5ba9 b6bc
00000330: 02b4 0cbe 6cfc 11be 541c f6bc 7f40 afbd
00000340: 4f13 fd3c 0c40 e2bd f4ba c5bd 3a0b 11be
00000350: e7a4 d9bd 27f0 39bd 1022 f6bc 43b6 17be
00000360: 7a87 e2bb c088 863c feb4 23bd b6ed d93b
00000370: 72c3 103e abf3 f6bd a016 c3bd 51fb 9b3d
00000380: 74f7 9d3d 00cc 17bd c02f 6fbd 7a3a af3d
00000390: fc0e f23d af0b 773d ec65 82bd 359c 08be
000003a0: 7a75 8b3d aeaf 68bd c258 093d 6853 9a3d
000003b0: 4466 e53d 6c16 b8bc 19a8 febd 1273 aa3b
000003c0: 5bc6 f8bd 5cf5 ba3b c175 d3bd ea5a 69bc
000003d0: fc02 7a3a 842d 143c ea79 cf3d 0377 2fbd
000003e0: 9273 0e3e 1c00 c83d 3e88 0a3e 20c5 d9bc
000003f0: dc1c a43d 94ad e13d 5dd2 de3d b296 c2bc
-0.08374383 0.003976941 0.01139909 0.038624622 -0.07934398 -0.055119738 0.0868887 -0.025376007
-0.13131505 -0.13948709 -0.06454818 0.038220443 0.115789056 0.122582674 -0.10814645 0.013991946
0.015757699 -0.092144385 0.07803729 -0.0018936907 0.11606878 -0.02664122 -0.13613167 0.10301657
-0.004783925 -0.10546034 -0.00331226 -0.10053773 0.022559151 -0.12557958 0.12299316 -0.059561804
-0.08076136 0.09536268 0.023002863 0.10939074 -0.032973513 -0.13683183 0.10126525 -0.09917382
-0.046476785 -0.074220575 0.04981318 0.094547994 0.1357198 -0.03032098 0.03671836 0.061533272
0.06738396 -0.11133002 -0.05203247 -0.11399358 0.047396556 -0.14016023 -0.09907798 -0.14773342
-0.07714392 0.10854933 0.030601233 0.015872512 -0.11449744 -0.12500507 -0.04836542 0.058035985
0.09649013 -0.031906754 0.13287887 -0.14556395 0.06806837 -0.05955348 -0.0063281655 -0.03583734
-0.12202675 -0.008227438 0.13809708 -0.020736815 -0.11364713 0.09618555 -0.14153564 0.09688148
0.072078116 -0.09091434 -0.07765111 0.11711918 0.107554734 -0.06630068 -0.08170373 0.12128625
-0.10351427 -0.027974956 -0.07512078 -0.058889087 0.022388533 0.00046862662 -0.0029108478 0.06797965
0.07319796 -0.031853862 -7.57128e-05 -0.10805161 -0.11956389 -0.098355964 -0.050921552 -0.12300752
-0.12103168 0.04026316 -0.037904 0.051313512 -0.04016389 0.028470844 0.11220462 0.09451191
0.12975912 -0.097359434 -0.14061138 0.02424177 0.13833082 0.14256915 -0.12650518 -0.15357244
0.047273993 0.108807266 0.098780096 -0.08188573 -0.030471325 0.010498166 -0.13614064 -0.118374586
0.039044127 0.011418536 -0.022251941 0.07482996 -0.109724626 -0.028254181 0.0125979185 -0.03499503
-0.14630006 -0.07191554 -0.024313338 0.05918043 -0.048199266 -0.0031722337 -0.078977026 0.03170526
0.06668863 -0.022775501 -0.13698314 -0.11133051 0.06993361 -0.11037176 -0.09918724 -0.10996533
-0.08051656 0.08240619 0.02180013 0.02520566 0.025456801 -0.05069202 0.067071676 -0.057696976
0.087200984 0.010942012 0.030378558 -0.014225683 -0.011739661 0.06774056 0.13459834 -0.05484559
0.072903045 0.14403844 0.08781856 -0.07900205 -0.027461827 0.03204038 -0.083059005 0.062349375
-0.018382136 0.13605788 -0.13259147 -0.15573393 -0.005269071 -0.0037449365 0.042094886 -0.043464784
-0.052119073 -0.05488921 -0.062829606 -0.1558952 0.08893399 -0.0625564 0.12059291 0.09911659
-0.13788651 -0.07568594 0.11783304 0.037483577 -0.12859532 0.0018070062 -0.03469126 0.00019921192
0.08053516 0.14192626 0.02041623 -0.022297552 -0.13740543 -0.14256448 -0.030042805 -0.085572235
0.030892996 -0.11047372 -0.09654799 -0.14164439 -0.10627156 -0.045395043 -0.03004554 -0.14815621
-0.0069131227 0.01642263 -0.03996753 0.006650652 0.14137056 -0.12058195 -0.095258 0.07616294
0.077132136 -0.037059784 -0.058395147 0.085560754 0.11819264 0.060313877 -0.06367096 -0.13340838
0.06809516 -0.056808166 0.03353191 0.0753544 0.11201146 -0.02247163 -0.12434406 0.0052017057
-0.12147208 0.0057055186 -0.10325194 -0.014242867 0.0009537188 0.009044055 0.10130675 -0.042838108
0.13911274 0.09765646 0.13528535 -0.026583254 0.08013317 0.110194355 0.10879967 -0.023753498

sequential/dense_1/MatMul f4 [4, 128]
00000000: 9ae4 1f3d c4e0 d2ba cb81 383e 6336 89bd
00000010: 49f3 eebd a66a 2a3e 201a b23e f0a5 16be
00000020: fad3 06bd 028a 783d f3a0 473e 5a9c b53d
00000030: 2be0 31bc c74c 1ebc 664b 273b 100d 523e
00000040: b692 5fbd 779b 293e 9238 a4bc 7be5 bc3d
00000050: bf7c 34be 6968 583e b66c a0bd b411 473e
00000060: 28be 82bd 74d0 e63d bdc8 a53c 530b 07bd
00000070: ceb0 05bd 64dc 17be c616 2d3e 3710 223c
00000080: 73c7 9e3d c2b6 3c3e 592d d6bc 3234 1abe
00000090: 02c5 b83d 51e7 173e d1bb 05be 0fb7 c8bd
000000a0: 3783 ac3d 995f 843e 8728 1ebd f5a8 1fbe
000000b0: 3667 fabd 95ef 8d3d f6b9 98bd c578 d83d
000000c0: 1ba1 d53c c362 2b3e b86b 283e 3886 8a3d
000000d0: a813 983d 022a 07be f11e 823d 173e e73d
000000e0: 9744 4ebe c87a 29be 95aa 043e ba28 96bc
000000f0: a6f0 b9bd 2c5b c7bd b3f7 20be 6df0 ee3d
00000100: baae dfbd 6e1e 66bc c983 153e 5f04 96bc
00000110: aeb4 fcbd 1f55 5e3c 30a1 393c e2bb 333e
00000120: 6179 193d d29e 583d 3556 db3b 1d65 21bd
00000130: 7af3 fa3c 004a 1dbd a143 d33d 34d4 b5bd
00000140: 5f9d 2abe 8d9c 98bc d8fd 583d e1b5 2ebd
00000150: fa51 b03d f76d 3fbd eb33 5f3e 3f0e cfbd
00000160: 2a11 e93d 3de8 783d 4ce7 f9bd 9c63 cebd
00000170: f630 863d 0f59 5bbb 480e 1b3e 855f 703d
00000180: 20d4 c5bd f5e7 503b 67e3 ac3d 70a8 093e
00000190: 0e22 51be 0e82 f8bd 7920 5b3e ce66 4e3e
000001a0: 3f9d 183d feb3 373e a209 febd aed6 8f3d
000001b0: 5b91 f03c 43e3 31be efd2 293e b8f1 0cbe
000001c0: 0aaf 1dbe a2d2 3a3e 1232 c0bd fc72 13bd
000001d0: 53eb 6e3e ec63 f4bc 3c34 a13d e279 91bc
000001e0: b604 1fbe 4d18 24be 9381 463e 9ecd 8d3d
000001f0: 7b79 06bd 45d7 cbbc e871 f53d 5fd0 a8bd
00000200: 28ba e73d 4923 063b 8d73 1e3e e791 dc3d
00000210: d18a d43d 4851 82be a4bd 26be 1e5f ebbc
00000220: 0a46 1b3c fba5 f43d cc85 34be 0dbe 9abe
00000230: d330 2abe 02f9 0f3e 5165 163e c4d3 aa3d
00000240: a675 dbbc 01f2 233e 45fe c1bc 85f5 443e
00000250: 3223 283e de5a 043e f9a0 d63c e439 cebe
00000260: 8fa3 c13d 29b1 2b3b 6e66 cebe 8f54 2b3e
00000270: 23c0 b73c a80c 19bd a432 f23d 0ca7 423e
00000280: 6788 d2bc 8165 ebbd 6451 1dbd 31a2 1cbe
00000290: c57f 84bd a107 0ebd 1b25 c9be 7e4a 9dbc
000002a0: f721 88bd b5b9 f0bd f967 78be ed80 06bd
000002b0: 8898 cf3d 90c9 f23d e9a6 5abe c164 fb3d
000002c0: a960 30be df36 213e 497d 0cbe b3e4 aa3d
000002d0: 3273 bb3d 0545 f7bd 2710 b3be fd92 c93d
000002e0: 0f18 413d 8b42 0b3e ecd5 aebd caea bdbd
000002f0: e8d1 eb3d d194 233e 7891 8d3b d950 5a3e
00000300: 18bd 0bbe abd7 993d 7c33 1e3e 9a82 223e
00000310: 3a21 ab3d 2d9c 48be 4082 7b3d 3eb4 123d
00000320: 5fb4 35be 0d8f ff3d b77c 67bd f717 113e
00000330: 2c96 34be 41b4 25be a5fc 0d3e 9ec0 313d
00000340: 2df6 ba3c ad08 dfbc 7fc9 663e 1387 ee3d
00000350: 7d1d 3a3e 54ba 503d 2dcb c7bd 880b 2a3e
00000360: 5023 573e f573 243e 5373 143e 4cd2 36be
00000370: 630e 533e dde0 163e 7e71 4bbe e643 09be
00000380: 38ec 253e d6a1 173d 6447 bc3d 05b3 213e
00000390: 9085 923e 3fc5 19bd ba59 c2bc 90de 453d
000003a0: 94de e4bd 1a00 3dbe 71db 3e3e ad35 8c3d
000003b0: a78d 2dbd 25ba 813d 2c7f 5e3e 2c93 4a3e
000003c0: fc09 49be 9feb 373e 4b18 99bc 02c2 143e
000003d0: b68b 72be ca34 80bc 132b ed3d 1a49 a93d
000003e0: 82a0 423c 45ca aa3d 5800 59be 93d3 5a3d
000003f0: 7815 59be 2064 0c3e 1b20 d43d 693d 32be
0.03903637 -0.0016088714 0.18018262 -0.066998266 -0.11667497 0.16642246 0.34785557 -0.14711738
-0.032917 0.06067849 0.19494991 0.08867712 -0.010856668 -0.00966186 0.0025527119 0.20512795
-0.054583274 0.16563211 -0.020046506 0.092234574 -0.17625712 0.2113358 -0.07833235 0.19440347
-0.06383926 0.11270228 0.020237321 -0.032969784 -0.032639317 -0.14830166 0.16903219 0.009891561
0.07752886 0.18429092 -0.02614467 -0.15058973 0.09021951 0.14834334 -0.13059928 -0.09800541
0.08423465 0.25854185 -0.03861287 -0.15591796 -0.12226717 0.06930462 -0.07457344 0.1056991
0.026077798 0.16736893 0.16447341 0.067638814 0.07425624 -0.13199618 0.06353558 0.112911396
-0.20143352 -0.16550744 0.12955697 -0.018329967 -0.09079103 -0.097341865 -0.1571949 0.11666951
-0.10921998 -0.014045341 0.14601053 -0.018312631 -0.123391494 0.013570099 0.011329934 0.1755214
0.03746927 0.052885838 0.0066936263 -0.03940307 0.030633677 -0.03840065 0.103156336 -0.08878365
-0.16661595 -0.018629337 0.05297646 -0.042653922 0.08609386 -0.04673573 0.21797149 -0.10110139
0.11380227 0.060768355 -0.122023195 -0.10077593 0.06552307 -0.003346983 0.15142167 0.058684845
-0.096596 0.0031876538 0.08441811 0.1344316 -0.20423147 -0.12134181 0.21399106 0.20156404
0.037259337 0.17939755 -0.12404181 0.07023369 0.029366186 -0.1737185 0.16584371 -0.13764083
-0.15398803 0.18244413 -0.0938455 -0.03599833 0.23331957 -0.029832803 0.07871291 -0.017758314
-0.15529141 -0.16024895 0.19385366 0.06923984 -0.032830697 -0.024882922 0.119846165 -0.08242869
0.11314803 0.002046781 0.15473767 0.10770016 0.1037804 -0.25452638 -0.1628328 -0.028731879
0.009477148 0.11945721 -0.17629164 -0.30223122 -0.16620187 0.14059833 0.14687087 0.08341172
-0.026789498 0.16010286 -0.023680815 0.19234283 0.16419676 0.12925288 0.026199805 -0.40278542
0.094550245 0.0026198125 -0.40312523 0.16731475 0.022430485 -0.037365586 0.11826065 0.19009036
-0.025699807 -0.1149397 -0.0384077 -0.15296246 -0.064696826 -0.034675244 -0.39286122 -0.01920056
-0.06647103 -0.11754171 -0.24258412 -0.032837797 0.10136515 0.11854851 -0.21352734 0.12275077
-0.17224373 0.15743588 -0.13719667 0.08344402 0.09152831 -0.12073711 -0.3497326 0.09842489
0.047142085 0.13599603 -0.08536896 -0.09273298 0.11514646 0.15974738 0.0043203197 0.21319903
-0.13646352 0.075118385 0.15449327 0.15870133 0.08355947 -0.19590826 0.061403513 0.035816424
-0.17744587 0.12478457 -0.05651542 0.14169298 -0.17635411 -0.16182043 0.13865907 0.043396585
0.022822464 -0.027225817 0.22537802 0.11646857 0.18175311 0.050958946 -0.097555496 0.16605961
0.21009564 0.16059859 0.14497118 -0.1785366 0.20610957 0.14734216 -0.19867513 -0.13404807
0.16203392 0.037019573 0.09193304 0.15790947 0.28617525 -0.037541624 -0.023724426 0.048307955
-0.11175266 -0.1845707 0.18638398 0.06846175 -0.04237142 0.063343324 0.217282 0.19782704
-0.19632715 0.17960976 -0.018688342 0.14527133 -0.23686108 -0.015650172 0.115804814 0.08265896
0.011879088 0.08339361 -0.21191537 0.05342443 -0.21199596 0.1371007 0.10357686 -0.17406239
